heart_best.pt (torch, 128375 bytes, 15 tensors)

fc1.weight f4 [256, 13]
00000000: 1e25 26be 25f2 c73d 984c fb3d e500 c0be
00000010: f899 483e 2979 e73c d9b2 313e b269 b0bd
00000020: 51b0 a83e 4d1d b0be 0f39 fe3d cf84 4e3e
00000030: 13a5 003f efef 2fbd 443c cd3d 3233 89bd
00000040: bc37 093e 9c97 b33e fa9a 983e 2a2f 54be
00000050: c454 d23d d294 a23e c891 4dbe 9f89 afbd
00000060: 15f7 39be c384 003e d0b4 f93e 6235 413d
00000070: fc20 84bf 8939 05be b8f9 9d3f 2aec 3fbf
00000080: 484b a0bf fa8d 283e 7f33 74bf bfd2 783f
00000090: 3a89 6cbc 7020 133f d6df a0be d173 af3c
000000a0: 278f 60be c7f4 923a 2b9c e63d 4e2a 1cbe
000000b0: 07ce 8cbd 39ad 70bd 75ba f73d 89de 4e3d
000000c0: 869a 063e 7aec 84bd ebf2 95bc fa9f 053d
000000d0: aa52 a9bc 1774 d9bd 5e98 693e a537 d13e
000000e0: 76c4 1bbd f5f3 9dbe b150 e0be 4599 d4bd
000000f0: 8ee1 53be da29 e4bc e041 673d b59b aebd
00000100: 1364 fbbe 6441 e43c ba9f 903c 288c 443f
00000110: 6fb7 333e 4f52 69be a8fa acbe 4381 c0be
00000120: 4486 c0be 3357 38bf 78a8 4ebe 457f ad3c
00000130: b907 dd3e 177a 45bf a018 c9be 8ee0 913c
00000140: 9378 2fbe 5554 883d 2bd9 69be bbd4 e3bb
00000150: 25dd 2ebe efc1 4ebe a5e1 053f 38be 6e3e
00000160: 5fe7 c63c b1e1 acbc 4bf0 683e 6778 f43d
00000170: 7cc3 1cbe faa8 4ebe 096e 083e 9e85 873d
00000180: 474b 043e f954 d23c 39e6 e2bd 7045 443f
00000190: 1364 453e 358a 87bd e2c8 a13d f72e 5a3e
000001a0: 6d9e 7bbf 0d62 49bf 5fa8 18bf d864 dd3e
000001b0: 9e6c fb3e 48f0 96be 5ef6 103e 94ee 8b3f
000001c0: 6c49 573f 2e4c c1bd d828 41bf a1be ed3e
000001d0: 281f bc3e 453d 87be 62e0 403e 6e9b 63bd
000001e0: c391 44be 5735 14be e6db 833e f67d 7fbe
000001f0: ca85 23bd bd1d 5e3e 7d74 cabe 558b 8bbd
00000200: 9999 953e ecfd 2c3e 3b1e b1be 28c9 52bd
00000210: 7132 e63e 3f7e 57be cd11 cbbd a878 013f
00000220: 67a5 5fbf 2c62 0dbf 8f81 0e3f a6e8 9cbe
00000230: c648 953d a5ba 57bf 0c1e aa3e 854e 01be
00000240: 9d94 0cbf fd4f 01bf 5d2b 7cbd 2f8e e53e
00000250: 30f8 b0be 3e63 b63e 7a18 9e3e 64ba b4be
00000260: 90b9 343f 6227 f03d 480a dfbc 8eca 2b3e
00000270: d202 963d df19 cf3d 3854 85be 529e ba3c
00000280: 454b 113f 79ff 4a3f a842 4dbf 846d 043f
00000290: 97d3 603e f0c7 68be 53d0 90bd 352f 97bf
000002a0: 9ac2 de3e 633c 19bf 5d60 ec3e e13c 89be
000002b0: 7b73 093f f86b 0e3e 33d7 fe3d cad1 18be
000002c0: 330b 7ebe 1d05 f43e 0cdf e1bb 4c08 d7be
000002d0: 4345 a6be ed48 9d3e 917f f5bf bb6d 49be
000002e0: 537e 24bf 73b1 ec3c 12c9 d1be af56 55bf
000002f0: b84d f7bd 9a55 c63e a561 bbbe fd6c d53c
00000300: e504 cebe 13a1 163f 50d5 ea3f 7d84 f9bd
00000310: 2092 09bf 47ed 92be 2dfb 13bf fa87 ff3d
00000320: 65f4 80bd 72be 463e 948e 6ebd 196d 6cbd
00000330: 8914 603e 900c bc3e 5c23 07bf 919a 12bf
00000340: fe7f 503e 53d6 723e bffd b53e cd0b 13be
00000350: 66b4 4c3e bc10 d43e 78f3 933e f241 4c3e
00000360: 8b56 ae3e b94c eabe fbda aa3c 95a7 ec3e
00000370: 35a1 0a3f 222a d1bd ea21 26bf b999 983e
00000380: 5e30 433f 2e82 99bd a2f0 d0be 04a8 773e
00000390: 62a0 0f3f 2285 42bf 134a 743f d81d 01bb
000003a0: fb8c a03e cc50 dcbe 5725 afbe 9244 b7bc
000003b0: 6211 52be ced9 bebc 6b6a ce3d 3863 0cbe
000003c0: d74e de3d d90a efbd 8d52 733e 596f 3bbd
000003d0: a7d0 db3d 0ffc e83d 35af 81bd 3304 49be
000003e0: ecd3 953d 502b 52be 6588 e53e b187 a03e
000003f0: 33ca 65be e7e8 10bf 396e a73e 6461 443e
-0.16225097 0.09762982 0.122704685 -0.37500682 0.19589984 0.028256016 0.17353381 -0.0861391
0.3294702 -0.34397355 0.12413227 0.2016785 0.50251883 -0.042953428 0.100212604 -0.06699218
0.13400167 0.35076606 0.29805738 -0.20721117 0.10270074 0.31754166 -0.20075142 -0.08571171
-0.1816066 0.12550645 0.4877076 0.04717005 -1.0322566 -0.13010229 1.2341833 -0.7496973
-1.2522974 0.1646041 -0.95391077 0.97196573 -0.014437014 0.5747137 -0.31420773 0.02141753
-0.21929608 0.0011211865 0.112602554 -0.15250513 -0.06875234 -0.058758948 0.12096111 0.050505195
0.13144884 -0.06490417 -0.018304309 0.03262327 -0.0206693 -0.106178455 0.2281203 0.40862766
-0.038029157 -0.30850187 -0.43811563 -0.10380796 -0.20691511 -0.027851988 0.056459308 -0.085257925
-0.49099788 0.027863212 0.017654289 0.7677636 0.17550443 -0.22785304 -0.33784986 -0.3759862
-0.37602437 -0.72008055 -0.20181453 0.02117885 0.43169954 -0.7713942 -0.392766 0.017807271
-0.17135839 0.0665671 -0.2283675 -0.0069528497 -0.17076547 -0.20191167 0.5229743 0.2331475
0.024280248 -0.021103712 0.22747914 0.119370274 -0.15308946 -0.20181647 0.13323225 0.06617282
0.12919341 0.025675284 -0.11079068 0.76668453 0.19276457 -0.06618158 0.078996435 0.21306978
-0.98288614 -0.7866524 -0.59631914 0.43241 0.49106306 -0.29480195 0.14156482 1.0932183
0.8409641 -0.09438358 -0.7545295 0.464345 0.3674252 -0.26413932 0.18835595 -0.05556815
-0.19196229 -0.14473473 0.25753707 -0.24950394 -0.039922513 0.21691032 -0.39541999 -0.06813685
0.29218748 0.16893739 -0.34593377 -0.05146137 0.4496036 -0.21044253 -0.099155046 0.5057473
-0.8736176 -0.55227923 0.5566644 -0.30646247 0.07289271 -0.8426917 0.3322605 -0.12627609
-0.54914266 -0.5051268 -0.061564792 0.4483504 -0.34564352 0.3562259 0.3087805 -0.35298455
0.70595646 0.11726262 -0.027226582 0.16776487 0.07324757 0.101123564 -0.26040816 0.022780571
0.5675548 0.7929607 -0.80179834 0.5172961 0.21955715 -0.2273252 -0.07070985 -1.1811281
0.43507844 -0.5985777 0.4616727 -0.2680426 0.53691834 0.13908374 0.1244339 -0.14923778
-0.2480896 0.4766015 -0.0068930443 -0.41998518 -0.32474717 0.307197 -1.9179555 -0.19670765
-0.64255255 0.028893208 -0.40973717 -0.83335394 -0.120753706 0.38737184 -0.36597934 0.026052946
-0.4023811 0.5883953 1.8346348 -0.12183473 -0.53738594 -0.28696653 -0.5780514 0.12477107
-0.062966146 0.19408587 -0.05824144 -0.05772123 0.21882834 0.36728334 -0.5278833 -0.572671
0.20361325 0.2371457 0.35545155 -0.1435997 0.19990692 0.41419017 0.2889669 0.19947031
0.34050402 -0.4576166 0.020856371 0.46221605 0.5415223 -0.10213114 -0.648955 0.2980478
0.7624568 -0.07495533 -0.40808588 0.24185187 0.561041 -0.75984395 0.9542553 -0.0019701626
0.3135756 -0.43030393 -0.34208176 -0.022371564 -0.20514444 -0.023297217 0.10078891 -0.13709724
0.10854881 -0.11671991 0.2376196 -0.045760486 0.10733157 0.11376201 -0.06332246 -0.19630508
0.073158115 -0.20524335 0.44830623 0.31353524 -0.22440414 -0.5660538 0.3270128 0.19177777

fc1.bias f4 [256]
00000000: 63cf 71bf d6a7 f5be 3bff f13e 9afe e3be
00000010: f6f7 06be 497e fabe 0e72 f7be 0f8b d9be
00000020: dc82 e7be 652c 1bbf 2148 5cbe bea8 b8be
00000030: fc4c 30be 8979 ccbe 1879 dbbf 509a debd
00000040: f10f 31bf ca3c 6ebe 530d 0fbf 57e4 12bf
00000050: 0d3c 9cbe fd8a e7be 406d 5fbc 2b15 16bf
00000060: 6b12 26bf 8b6f 08bf 63db 733e 9896 24bf
00000070: 8788 26be 376d 5ebe 9b92 89be ef80 86bf
00000080: d62c f4be efab b9be c3ff af3e 8189 06bf
00000090: a3ec b7be 390d 07bf af16 3bbe d875 08bf
000000a0: a878 a6be 6bbc 39bf e587 b73e d320 a0be
000000b0: 100a 0dbf 8e73 96bb 6717 c4be 8a96 c3be
000000c0: 6bb2 2cbe 6ec0 02be 959f 4c3e b05a 9bbe
000000d0: 05dc 6abe a50a 2bbf e6ec 26bf 2cf0 a9be
000000e0: 4a5f 57be 4a01 9bbe a3e9 c4be 2f6d 91be
000000f0: fe38 d8be 3d4d 2abf 4125 183e d213 a0be
00000100: f8fa ffbe 5590 19bf 8783 043f 7fa2 c8be
00000110: dbfc e0be a1b7 b1be a3fc 54be 3aaa f4be
00000120: 859e 76be 3b8a 38be f311 a0be 58c9 d6be
00000130: 39a7 2bbd 7246 8abe bed0 0dbf 001d 4dbe
00000140: cf7f 0ebf ed0b c9bc e285 18bf a978 d2bc
00000150: 8a70 15bf 261c b0be fb5a dfbe ab4e 3dbf
00000160: f27f a4be b786 96be 3cbf 13bf eafa 3cbf
00000170: 1aae dbbe f95d dbbe 930c 1cbf 5913 0dbf
00000180: 6be8 1e3f df63 91be 74df 42bf 2c7b 55bf
00000190: 4589 2fbf 156f aebe 074c 26bf 5333 97be
000001a0: 3921 f0be 430a c7be 0970 0fbf 3ba8 033f
000001b0: fb9f a4be cf95 0bbf c2c5 ebbd 9c32 0ebf
000001c0: e97c d3bc b371 37be 5051 f3be d13c f5be
000001d0: b0fd 20bf b851 eabd 709b 08bf e765 2cbf
000001e0: e66f 3bbf 6187 14bf 20db 9ebd 1c45 f5be
000001f0: a294 abbf 8b73 a8be 1fdb 1dbf 7123 38be
00000200: bf95 bdbe 6f7a a93e 2f0b ed3e b934 21bf
00000210: aa19 e2be 243f 05bf 0e8b 02bf f4b0 65bf
00000220: 2a8f 96bd ce5d f03d bac2 d5be e57c 14bf
00000230: b9ec 6abe 8a65 1cbf 7daf edbe e36b b4be
00000240: 8113 b9be 90ee c93e 1061 9bbe 541d b83e
00000250: b956 0dbe e212 3dbf aea1 29bf 1aa5 22be
00000260: 3aaf 19bf 6b18 61be 3799 9ebe a675 20bf
00000270: 1f52 d0be 92a3 913f f394 d5be 9aa2 12bf
00000280: 8d14 aebe 226f 8b3e edf2 01bf b360 53be
00000290: 04bf 04be ce82 693d 6b6e e7bd 600f cfbd
000002a0: d191 89bf 6736 31bf aafe 34be 4893 d3be
000002b0: 0a8b 67bf b2d2 7dbf a1f9 27bf 82a9 d4be
000002c0: 46a1 42be 7f2f 753e 0409 0abf 5390 8abf
000002d0: 3d88 b4bd fc0a e4be c956 a0be c635 1bbf
000002e0: 218f bcbe b6d5 b8be 3ef4 773e 6cd2 f6be
000002f0: 41b4 a9be 7387 5abf df43 62bf d41e 4dbe
00000300: b039 efbe 78ee 70be 779c efbe 25f3 37bf
00000310: aa79 c7be 7e1a 97be ec35 3d3c edf5 a2be
00000320: b5eb c5be fcaf 9a3e db26 08be 29e2 803d
00000330: 21e0 1abf 34a5 11bf 4b72 0dbf 8528 d4be
00000340: 4eea 4bbe 16ca c9be f5b5 483e 840c fdbe
00000350: 4675 b73d 3ecd b4be 1131 e0be 123b 2fbf
00000360: c214 3fbf 863f bbbe 0bc8 9dbe 20c8 abbe
00000370: bda7 87bf ae18 28bf 17fa 4ebf 0ac5 fdbe
00000380: 5814 bdbd 2718 b5be d86f 26bf a800 bebe
00000390: 524c 85be 97b9 973e 6d8b 51be 2b54 8bbe
000003a0: b34b 0bbf b2b9 41bf d79d 73bf 671a 1dbe
000003b0: f90b 3fbf ae5f a8be de32 eabe d619 a2be
000003c0: 054a efbe 7add d1be 1c71 95be b640 c0be
000003d0: 678a cfbe 0111 29bf e996 e5be 6b78 07bf
000003e0: 76d7 7dbe 613e 33bf b8bd a1be cf68 12be
000003f0: 402e 6ebf 1a14 bcbe b001 babe 2d8a 47be
-0.9445707 -0.4797961 0.47265038 -0.44530183 -0.13180527 -0.48924473 -0.48329204 -0.42488906
-0.45217025 -0.60614616 -0.2151189 -0.3606624 -0.17216867 -0.39936474 -1.714633 -0.108692765
-0.6916495 -0.23265377 -0.55879706 -0.5737967 -0.30514565 -0.45223227 -0.013636887 -0.5862605
-0.64871854 -0.532952 0.23814158 -0.6429229 -0.16263019 -0.2172135 -0.26869664 -1.0508097
-0.47690457 -0.36263987 0.34374818 -0.52553564 -0.35922727 -0.5275455 -0.18270372 -0.53304815
-0.32513928 -0.7255313 0.35845867 -0.31275043 -0.5509348 -0.004591412 -0.38299105 -0.3820079
-0.16864936 -0.12768719 0.1998275 -0.30342627 -0.22935493 -0.6681312 -0.6520523 -0.3319105
-0.21032444 -0.3027442 -0.384595 -0.28403613 -0.42230982 -0.66524106 0.14857961 -0.31265122
-0.4999616 -0.5998586 0.51763195 -0.39186475 -0.43942913 -0.3471041 -0.20799498 -0.47786123
-0.24083908 -0.1802148 -0.31263694 -0.41950488 -0.041907523 -0.2700687 -0.5539664 -0.20030594
-0.5566377 -0.02454182 -0.5957929 -0.0256923 -0.58374846 -0.34396476 -0.436241 -0.7394816
-0.32128865 -0.29399654 -0.57713675 -0.73820364 -0.42906266 -0.42845133 -0.60956687 -0.5510765
0.6207339 -0.28396508 -0.7612221 -0.8339107 -0.6856883 -0.34069124 -0.6495976 -0.29531345
-0.46900347 -0.38875017 -0.5603033 0.51428574 -0.32153305 -0.54525465 -0.11512329 -0.55545974
-0.025816398 -0.17914467 -0.47522974 -0.47897962 -0.62887096 -0.11441368 -0.5336218 -0.6734299
-0.7321762 -0.5801907 -0.077566385 -0.4790429 -1.3404734 -0.32900652 -0.6166248 -0.1798227
-0.3702831 0.33101222 0.46297595 -0.62971073 -0.44160205 -0.5204947 -0.5099343 -0.89723134
-0.07351525 0.11736642 -0.41750127 -0.58003074 -0.22941865 -0.61092436 -0.4642295 -0.3523856
-0.36147693 0.3943982 -0.3034749 0.35959876 -0.13802613 -0.7385694 -0.6626233 -0.15883294
-0.60033 -0.21981971 -0.3097627 -0.6267952 -0.40687653 1.1378043 -0.41715202 -0.5727936
-0.34000054 0.27233225 -0.507613 -0.20642357 -0.12963492 0.05700951 -0.113003574 -0.101103544
-1.0747625 -0.69223636 -0.17675272 -0.41323304 -0.9044653 -0.9914962 -0.6561528 -0.41535574
-0.19006833 0.239439 -0.53920007 -1.0825294 -0.08815048 -0.4453963 -0.31316212 -0.60628927
-0.3682795 -0.36100549 0.24214265 -0.48207414 -0.33145335 -0.8536293 -0.88384813 -0.20031291
-0.467237 -0.23528469 -0.4679906 -0.71855384 -0.3896001 -0.295124 0.0115485005 -0.3182825
-0.38656393 0.3021239 -0.13296072 0.062931366 -0.60498244 -0.56892705 -0.5525252 -0.41437164
-0.19913599 -0.39411992 0.19600661 -0.4942361 0.08957915 -0.35312837 -0.43787435 -0.6844951
-0.7464105 -0.36571902 -0.30816683 -0.3355112 -1.0598065 -0.6566266 -0.80850357 -0.4956439
-0.09232396 -0.3536999 -0.6501441 -0.37109876 -0.2603479 0.2963378 -0.20463343 -0.27212653
-0.5441238 -0.75673974 -0.9516272 -0.15342103 -0.74627644 -0.32885498 -0.45741934 -0.31660336
-0.4673616 -0.40989286 -0.29187858 -0.3754937 -0.4053528 -0.6604157 -0.44841698 -0.5291812
-0.24789223 -0.7001706 -0.31590056 -0.14297794 -0.9303932 -0.36734086 -0.36329412 -0.19486304

fc2.weight f4 [64, 256]
00000000: 08ad 723e d51d 933e dabc f6be 23c3 303e
00000010: 966a 1abe e4da f4bd 6095 993e 50fc 94bc
00000020: c159 2f3d d872 fd3d ca46 963e 7771 04be
00000030: df68 053f 50e8 d63e 9ace a83e ab12 4fbd
00000040: b157 b7bb 4469 f9bd a2aa cc3d d105 823e
00000050: 132c 6f3e 9290 963c 6716 a32e 0dd6 3ebc
00000060: 35c9 17bd 3cf3 293e 6659 a5be e35d 713c
00000070: 0962 ebbc 0a68 403f 7c9a 85be 52e4 5c3e
00000080: 4128 0e3f 65e7 7b3e ffd4 f7bb b76a a43e
00000090: 7e99 b13e 3d2d f9bc a9d0 073d 813b 98bc
000000a0: 87bf 083b abf2 913c 8460 f0bd 22e1 91bd
000000b0: 9284 febd 3fc0 18b7 b7a9 9e3e 0982 17bf
000000c0: 1f95 0d3e 6b2f 73bd 3733 05be 9f98 b0bc
000000d0: 5453 183e 7c2d 243d 135f b13e 6d56 5a3e
000000e0: ebd5 cebc cb58 a0bd d860 6b3e b2d3 1f3d
000000f0: 1728 d9bd 49fa 54be 9c24 d5be 64cd 5b3e
00000100: 5bd7 5e3e d49b 8c3e b8a3 37be 52a1 70be
00000110: 375c a43e 5ad1 be3c ed58 00be e2e6 14bd
00000120: 74ec 8fbc 7db2 a13e 8c10 943d 272c 523e
00000130: f87d 01b2 9404 8d3d 9831 38bc d590 3b3e
00000140: 63b3 823e f16f d83e cbd9 f33c 4477 bcbd
00000150: c743 09be fdba 1a3d 2e91 06bd 705d 38bd
00000160: 28fd b4bd 9d18 38be b7ca f33e 8084 56bb
00000170: 2171 a73e dc58 6bbc bee5 143e def8 9abe
00000180: b25a d8be 2e40 b33e 269d 35be 6426 cb3d
00000190: 7082 02be 103d 92be f225 473e c6c4 f23c
000001a0: cd5e cdbb 96b0 a3bd 449c 873e de69 55bd
000001b0: a74d ad3e 58dd 973e 2e52 02be 2be0 d33d
000001c0: 9fda 14be e1c6 75bd d860 efbc 847a 9bbd
000001d0: 0892 0b3e 130e 7cbc 59a4 f03c 82f2 ecbd
000001e0: 7e91 06bf 7bcb a03d 68ce 823e 6de5 d43d
000001f0: 3266 0f3e 9a00 6f3e 51c4 973e 04ac 78bc
00000200: 4822 78bc 7341 e4be 0650 30be ae0b 7b3e
00000210: 9bc1 4ebe c78d a53d 8497 98be 77e3 433d
00000220: 8f63 4fbe dce3 46be 6a5f 1b3d 4fb0 653d
00000230: 0b17 7d3e 4789 1a3e 98bc a1bd 55ef a6be
00000240: 3f79 ea3a 2aa7 203e 935e 51bd f76c aebe
00000250: 6653 46be c4c9 58be 124f 003c ebab 2b3e
00000260: 3091 27be b071 80bd 8ba4 4ebd 4fb2 893a
00000270: 2651 3fbc 8650 4bbf 579b fb3e aea8 33bc
00000280: 7d2c ffbd 70b6 343f 9bc0 57bc 715c 53be
00000290: a505 8bbd 6b17 d73e ab27 0a3e 9e3b babc
000002a0: 11f3 253e 7035 3e3e 2d17 273e 2c42 883d
000002b0: 7359 223f 72e3 25be 8cac 523e 70f3 6dbe
000002c0: bab3 f3bd b379 4dbe 75a8 173e 5fbb 8a3e
000002d0: 4c60 60bd 718b bfbd ba3d f2ba efb5 93be
000002e0: 1b3c 413b 2bf9 42be 12ab 97be 4489 163e
000002f0: ebab e63d 3a02 5a3e 83ad 403e 9881 7e3e
00000300: ea3c d3bc 406e b13d d360 b6bc 8ae2 e9b9
00000310: b6e9 373e ab91 8fbe 1a47 6e3c 1f89 f8bd
00000320: f37f 9cbc 0dc4 53be c6b1 29be 892f 9e3c
00000330: 381a 243c 6a7f 883e c0a4 1ebe f511 33be
00000340: a89e 8abd 82af 81be 1f07 39be db6f 073e
00000350: 55a8 dbbd 0195 e23d a72c 03be 51a7 a039
00000360: 09e7 02be d7b4 5dbe 4ce2 0dbf c414 4dbe
00000370: 20b5 72bd 6c04 3939 9ee6 673b af48 a13d
00000380: 6f2f 3a3f b60e b53e f8aa a1bd 44ed 41bc
00000390: 9281 593e 3cf2 6dbe a2ef 75be 741f 103f
000003a0: 9694 2fbe 8a7a ed3e 4087 a93d f730 0ebe
000003b0: 365f 3cbe b415 f73e 35bd 713c e74f c839
000003c0: 5b6a 9c3c e34f 873e 4614 793e 3daf 2f3b
000003d0: c76b b13e dd0e 23be 182b 61be a2f2 f13d
000003e0: aa0e c63b 1cc2 dabd 843f 723e 5e5e 2239
000003f0: 2d86 b93d 1df6 02bd 75ca b03e 6c78 43bd
0.23698819 0.28733698 -0.48190957 0.17261939 -0.15079722 -0.119558126 0.29996777 -0.018186718
0.042810205 0.1237542 0.29350883 -0.12933908 0.52113146 0.41974115 0.32970124 -0.050554913
-0.0055951704 -0.12178281 0.09993483 0.25395063 0.23356657 0.018379483 7.416361e-11 -0.011647713
-0.03705712 0.16596693 -0.32294768 0.014731857 -0.02873327 0.7515875 -0.26094425 0.21571472
0.5553017 0.24599989 -0.007563233 0.32112667 0.34687418 -0.03041708 0.03315798 -0.018583061
0.0020866112 0.017815908 -0.11737159 -0.07123019 -0.124276295 -9.104667e-06 0.30988857 -0.5918279
0.13826416 -0.059371393 -0.13007818 -0.02155715 0.14875537 0.04008244 0.34642848 0.21322031
-0.025248488 -0.07829436 0.22986162 0.039020248 -0.1060335 -0.20798601 -0.41629493 0.21465069
0.21761839 0.27462637 -0.17933547 -0.23499039 0.32101604 0.023293186 -0.12533922 -0.036353
-0.017568804 0.31581488 0.072297186 0.20524655 -7.53743e-09 0.06885639 -0.011242293 0.18316968
0.25527486 0.42272905 0.029766938 -0.092024356 -0.13404761 0.037775982 -0.032853298 -0.045010984
-0.08837348 -0.17978139 0.47615597 -0.0032732785 0.32703498 -0.014364447 0.14540765 -0.30267996
-0.42256695 0.35009903 -0.17735729 0.09919432 -0.1274507 -0.28562212 0.19448069 0.029634845
-0.0062674046 -0.079926655 0.2648641 -0.052102916 0.33848307 0.2966106 -0.12726662 0.10345491
-0.14536522 -0.06000412 -0.029220983 -0.075917274 0.13629925 -0.015384215 0.029375242 -0.11569692
-0.52565753 0.07851311 0.255481 0.10395322 0.14003828 0.23340073 0.29641965 -0.0151777305
-0.015144892 -0.44581184 -0.17218027 0.24516174 -0.20191042 0.080836825 -0.29803097 0.04782435
-0.20252822 -0.19422859 0.03793279 0.056076344 0.24715821 0.1509143 -0.078972995 -0.3260447
0.0017888917 0.15688768 -0.051115584 -0.3406751 -0.19367751 -0.21170717 0.007831352 0.167648
-0.16363978 -0.06271684 -0.05044989 0.0010505411 -0.011677062 -0.79419744 0.49141952 -0.010965509
-0.12459657 0.7059088 -0.013168479 -0.20640732 -0.06788186 0.42010054 0.13491695 -0.022733506
0.16206004 0.18575072 0.16317435 0.06653246 0.6341774 -0.16200045 0.20573634 -0.23237395
-0.118995145 -0.20065956 0.14810355 0.27096078 -0.054779336 -0.09352768 -0.0018481531 -0.28849742
0.0029485289 -0.19040363 -0.29622704 0.147008 0.112632595 0.21289912 0.1881619 0.24854124
-0.025785882 0.08663607 -0.022262966 -0.00044610008 0.17960247 -0.28040823 0.014543319 -0.12135529
-0.01910398 -0.20680256 -0.16571721 0.019309776 0.010016017 0.2665971 -0.15492535 -0.17487319
-0.067685425 -0.25329214 -0.18069123 0.13226263 -0.10725466 0.110635765 -0.12810002 0.0003064224
-0.12783445 -0.21651016 -0.55423427 -0.20027453 -0.059254766 0.00017644622 0.0035385261 0.078751914
0.7272863 0.35362786 -0.07893938 -0.011836354 0.21240833 -0.23236936 -0.24017194 0.56297994
-0.17146525 0.46382552 0.0827775 -0.13885866 -0.18395695 0.48258746 0.014754583 0.00038206505
0.019093683 0.26428136 0.2432414 0.002680733 0.3465254 -0.15923639 -0.21989095 0.11813857
0.0060442286 -0.10681555 0.23657042 0.00015484678 0.09058795 -0.031972993 0.34529462 -0.047722265

fc2.bias f4 [64]
00000000: 3254 91be 3534 0100 e78b 0580 5616 878f
00000010: d15c 0aba 3b04 e0ba afd7 93bd 2a5a 84be
00000020: 0384 97b4 97c2 973e 6e44 61ba 826d 983e
00000030: 675f 09bf d427 fb3d 4172 fdbd e1f9 2ebe
00000040: 6b2b e83d d068 0eb1 5d9d 9fbe 136a a83f
00000050: 5afe 2484 d693 3bb7 cf70 f73e 97ce 4eba
00000060: be41 65bd 643b b6a6 ec77 e395 4123 32be
00000070: 6764 14bc 4208 00be 3ce2 debe 6777 60bc
00000080: edaf 85bb b973 2cbd 090b 14be 30d4 b1bd
00000090: 895f 1400 6e2d f33e 2055 a83d 01fd d93d
000000a0: ccac 7e3e f6c1 11b8 c889 f2be 36d2 d1bc
000000b0: ee66 80be 5cce f5be c693 293c 63ad 17bb
000000c0: 4b0f b1be c204 fa3e eb79 4885 5824 8338
000000d0: 481c 0080 8143 99bd e817 baba 38c3 6cbd
000000e0: da34 113d 7841 c3b8 7f54 193b 9938 953e
000000f0: 9512 2aaf 865d 2abc 4658 0100 2a7b bfa7
-0.28384548 1.10564e-40 -5.09365e-40 -1.3320631e-29 -0.0005278113 -0.0017091105 -0.07218873 -0.2585004
-2.8221993e-07 0.29640648 -0.00085932657 0.29771048 -0.536612 0.12263456 -0.12375308 -0.17087509
0.11336406 -2.0723299e-09 -0.31174746 1.3157371 -1.93949e-36 -1.1180489e-05 0.48328254 -0.00078890607
-0.0559709 -1.2644885e-15 -9.1873773e-26 -0.17396261 -0.009057141 -0.1250315 -0.43531978 -0.013700343
-0.00407981 -0.04210255 -0.14457335 -0.0868305 1.870981e-39 0.47495598 0.08219361 0.1064396
0.24870604 -3.4751334e-05 -0.47370744 -0.025612932 -0.2507853 -0.48009002 0.010350173 -0.0023144118
-0.3458198 0.48831755 -9.4263476e-36 6.253336e-05 -1.0145e-41 -0.074835785 -0.0014197798 -0.057803363
0.035450794 -9.310519e-05 0.002339631 0.29144743 -1.5468012e-10 -0.010398274 1.23502e-40 -5.3146684e-15

fc3.weight f4 [64, 64]
00000000: a4f0 0300 3dad 0280 7a54 6005 591a 0280
00000010: 55b8 3bb1 96b0 199e 0181 00b7 c049 613b
00000020: 882b b4bd c9e0 8838 25e1 ad26 b76b 803b
00000030: 1ce6 bb3d 97e7 21ac 84b6 aeab 242c 4a32
00000040: 0a70 ffbc 254f 411c eb9d c299 aea4 adbb
00000050: 5f49 0200 27d6 0000 f358 c4bc d5d7 163b
00000060: 141c 8289 cc3d d338 c1aa a01b 4c80 3db0
00000070: fa92 de83 68ce ad10 b846 162c bbbb 442e
00000080: 7a92 333d 112d 7bbd 751e d9b7 23a4 90ba
00000090: 21fd 5b2c 51bf c1bd cfc9 a12c 568f feb9
000000a0: ec90 65b8 3bef 0080 8359 e93b 44a6 240c
000000b0: 9c0c 13b9 f016 61af f2c2 70bd c9fa bb3d
000000c0: a8bb 83b6 5f86 459c a917 b9b8 9f34 0180
000000d0: c78f 0200 7af5 a2b8 a91b 1abc 2f83 dd34
000000e0: 888e 02b7 dc1d 6437 244e 6f29 76d7 16bb
000000f0: 5b7f dbbd 97bf fd1d 288f 0580 8d44 0280
00000100: 3a61 0280 ded2 0100 5168 0000 cbf5 0400
00000110: b3fa 0500 16ad 0080 c432 0280 3cad 0300
00000120: 9e71 0680 6686 0500 6d93 0080 7085 0780
00000130: e547 f287 eac4 0200 2eda 0480 c6bc 0580
00000140: d52f 0480 4bbf 0300 0d57 0280 bd6b 3a93
00000150: 253e 0280 b17d 0580 52cf 288b 35a6 0500
00000160: f5ad 0480 037e 0080 d523 0500 e34a 0180
00000170: 6f71 0280 0c2c 0800 66da 0600 5a2c 0580
00000180: b027 0080 a7c7 0180 5cb2 2a16 ac3c 0080
00000190: d589 0480 5141 0300 1c0c 0000 3225 0180
000001a0: 1080 0180 08d4 0480 7a76 3f15 75e5 0780
000001b0: 9838 0080 feee 0080 3a82 0680 cdf7 0000
000001c0: ecfb f990 f718 0300 c916 0380 475c 0200
000001d0: 81ab 0400 32bc 0580 02d0 0100 ea4a 201c
000001e0: 8015 0200 1ed7 0500 fca9 0280 b1cb 0280
000001f0: da4a 0300 001a 0000 1465 0680 1711 0200
00000200: d808 7827 2035 0000 6104 0080 2dd6 3480
00000210: 3861 0100 e4da 0aa1 ba24 e71a 7453 ddb8
00000220: 27c7 42a9 6195 f0ba 60fa b8ab 3a3d 2dba
00000230: 2c7f 5bb9 7f63 86b6 fd02 00a9 f080 c8ba
00000240: c1ee e7bc 973b 0180 2aeb a2b7 2012 023c
00000250: 76ee 0500 8462 ad2a adfd abbc 10ba 3230
00000260: 9f38 8ca6 4324 0100 26d2 0100 267c e42d
00000270: af00 3338 901a 9fa6 8cfa 3832 febb 5835
00000280: fbda 35aa 2f8e 9937 db2d 41bc 6320 4ab6
00000290: 318c 23a0 ad78 aebc 2d82 80ae 5e6a eb33
000002a0: 6e11 dc2e 2740 f2b6 4726 d5b5 dbcb a1ad
000002b0: 4f0b 36ba bc7e 91ad ed8d 553b 14ad 1d0c
000002c0: 1e42 60b7 76e9 f3ac b5f6 0280 8323 0380
000002d0: b520 0100 8801 0b35 bca2 9e22 7636 a535
000002e0: 942d 473b 197e 81b4 6605 38bb 3206 3dba
000002f0: 3b8a 0100 166f 2e1f 3dd1 ff82 18a8 0480
00000300: fb2b 873e 371c 0089 5139 d633 6f03 0500
00000310: 11a5 0a3b b335 de3a 9b37 05be c128 903c
00000320: e73f cdb0 d9a4 663e c15a b3b8 6eeb ac3e
00000330: 599c 2bbd 08bb a43e e040 41be 67a0 34be
00000340: 1ed0 f83e f7cc 439f 34b5 23bb 6158 fbbe
00000350: 78de 5c2f 4300 adbc e643 29be 7149 cd37
00000360: 1535 fa39 b0bc 0400 577f 9602 a2fe 31be
00000370: feaa 053b 8372 50bd 8c87 b73e c3fc 523b
00000380: 1938 8f3c 468b 61bb fd28 ab3e 9c3e 97bd
00000390: 5321 9d24 0436 3dbe 34c4 3fbd 4e8a aa3d
000003a0: 0a4a 3b3c 3210 1cb4 b1cf 12be 761e c23e
000003b0: 782e 843d ddb8 fd3e bde7 84bf f1bd d5ae
000003c0: 744d 55bc c08c 7f3e 4b78 75ab 6c3a 9bb7
000003d0: 92ff ad2e 8b07 03bd af3b b5bd 8177 fbbb
000003e0: b1f3 b73e bcb0 58bb 5911 dfbd 515f c33e
000003f0: 1a36 9829 7c9e da3b 74e1 3821 2641 5dae
3.61832e-40 -2.45817e-40 1.0547945e-35 -1.93123e-40 -2.7316862e-09 -8.13627e-21 -7.659431e-06 0.0034376234
-0.087973654 6.526855e-05 1.2065312e-15 0.0039190906 0.09174749 -2.3008034e-12 -1.2414102e-12 1.1767984e-08
-0.031181354 6.3960635e-22 -2.0122912e-23 -0.0052991724 2.09992e-40 7.6823e-41 -0.023968196 0.002301683
-3.1322766e-33 0.000100727746 2.6580127e-22 -6.894012e-10 -1.30817315e-36 6.855449e-29 2.1355539e-12 4.473198e-11
0.043840863 -0.061322276 -2.5882598e-05 -0.0011035245 3.1262287e-12 -0.09460319 4.5983005e-12 -0.0004855345
-5.4732824e-05 -8.582e-41 0.0071212663 1.2684134e-31 -0.0001402371 -2.047178e-10 -0.058779664 0.09178693
-3.9259503e-06 -6.5355503e-22 -8.8258945e-05 -1.10712e-40 2.35249e-40 -7.7704855e-05 -0.009406009 4.1259906e-07
-7.7817895e-06 1.3596811e-05 5.3136437e-14 -0.0023016608 -0.107176505 6.716664e-21 -5.10532e-40 -2.08262e-40
-2.1855e-40 1.6748e-40 3.7422e-41 4.55516e-40 5.49111e-40 -6.2092e-41 -2.01882e-40 3.37651e-40
-5.91771e-40 5.0739e-40 -5.2886e-41 -6.90717e-40 -3.6454369e-34 2.5431e-40 -4.4561e-40 -5.26897e-40
-3.84501e-40 3.4413e-40 -2.14899e-40 -2.352962e-27 -2.05964e-40 -5.04267e-40 -3.2511594e-32 5.18801e-40
-4.29746e-40 -4.5204e-41 4.72032e-40 -1.187e-40 -2.24363e-40 7.50485e-40 6.2936e-40 -4.75088e-40
-1.4237e-41 -1.63457e-40 1.3788771e-25 -2.1765e-41 -4.16787e-40 2.98938e-40 4.344e-42 -1.05179e-40
-1.37776e-40 -4.43404e-40 3.8665604e-26 -7.25162e-40 -2.0302e-41 -8.5734e-41 -5.9773e-40 8.8894e-41
-9.860133e-29 2.84462e-40 -2.8368e-40 2.16774e-40 4.28866e-40 -5.26689e-40 1.66455e-40 5.3036383e-22
1.91384e-40 5.36347e-40 -2.4465e-40 -2.56742e-40 3.02358e-40 9.327e-42 -5.87273e-40 1.89802e-40
3.4421708e-15 1.9058e-41 -1.571e-42 -4.852278e-39 1.26711e-40 -4.704592e-19 9.5598696e-23 -0.000105536456
-4.324939e-14 -0.0018355065 -1.3143479e-12 -0.000660855 -0.00020932843 -4.005094e-06 -2.84243e-14 -0.0015297215
-0.028312089 -1.13212e-40 -1.9421412e-05 0.007938892 5.44721e-40 3.0799332e-13 -0.020994985 6.5020433e-10
-9.729799e-16 1.04844e-40 1.67223e-40 2.5975732e-11 4.2677562e-05 -1.1040041e-15 1.0767177e-08 8.0739835e-07
-1.6152004e-13 1.830523e-05 -0.011790718 -3.0119197e-06 -1.3853022e-19 -0.021297777 -5.84389e-11 1.0962388e-07
1.0007538e-10 -7.2196303e-06 -1.5880877e-06 -1.8394111e-11 -0.0006944434 -1.6540873e-11 0.0032585815 1.2146924e-31
-1.33668345e-05 -6.9323948e-12 -2.72173e-40 -2.88246e-40 1.03569e-40 5.1783763e-07 4.2998288e-18 1.2309308e-06
0.0030392157 -2.411987e-07 -0.002807939 -0.0007210701 1.41423e-40 3.693782e-20 -3.758898e-37 -4.27643e-40
0.26400742 -1.5420706e-33 9.975577e-08 4.60409e-40 0.0021155516 0.001695326 -0.13009493 0.017597558
-1.4933875e-09 0.22523822 -8.5522894e-05 0.3377337 -0.04189715 0.32173944 -0.18872404 -0.17639314
0.4859628 -4.14624e-20 -0.0024979832 -0.49090865 2.008792e-10 -0.021118289 -0.16529807 2.4472103e-05
0.00047723265 4.3503e-40 2.2113609e-37 -0.17382291 0.0020396109 -0.050890457 0.35845602 0.0032194115
0.017482804 -0.0034415289 0.3342971 -0.07384989 6.814435e-17 -0.18477637 -0.046817973 0.08327161
0.0114312265 -1.4534524e-07 -0.1433704 0.37913865 0.06454176 0.49555102 -1.0383221 -9.719859e-11
-0.013018955 0.24956036 -8.7208425e-13 -1.8504645e-05 7.9125276e-11 -0.031989615 -0.08849274 -0.007674158
0.3592811 -0.0033064326 -0.10891981 0.38158658 6.759541e-14 0.006671725 6.264001e-19 -5.0307446e-11

fc3.bias f4 [64]
00000000: a77c 4414 3adf ae2a 7842 ab37 84ab 5033
00000010: 1aaa 5b32 9fd9 e32b 8af3 1035 4858 6236
00000020: 0048 3930 d002 cb37 90db 88ad ca18 b4ad
00000030: 30e5 b033 beea d0b9 48ee 8e38 6046 e8b4
00000040: 894a 102d ee26 882a d12e a8b5 2834 2730
00000050: 1833 c637 1b90 1434 d492 ce34 4fe5 6eba
00000060: 537d 85b9 6c42 ddb7 02bf e637 9573 a9b8
00000070: a3a0 5530 60c7 4f30 3439 9ab1 5eb3 90b3
00000080: 8479 0eb4 08ab f700 f67f 3235 c8e8 83b4
00000090: 4124 3901 e0bb 23b2 363f 842e baa7 43b9
000000a0: 0354 9139 9ef5 172b d231 2f36 56fa 18b7
000000b0: f888 d42b b420 d2b0 70fc 1c31 58f2 7d2d
000000c0: d894 7733 8839 b036 c0a0 2436 6b5f 1d34
000000d0: efe8 03b0 5273 bd2b ec96 7134 9688 d7ba
000000e0: 10e1 2981 7664 1638 d0d1 722d 7bda c938
000000f0: 6387 c82e 1819 47b0 7014 3eb4 ee8d b4b6
9.9200545e-27 3.1063504e-13 2.041574e-05 4.8584766e-08 1.2786154e-08 1.6189722e-12 5.3998576e-07 3.372801e-06
6.7404926e-10 2.4200795e-05 -1.5558915e-11 -2.047464e-11 8.2373276e-08 -0.00039847748 6.815471e-05 -4.3264572e-07
8.2020024e-12 2.4185466e-13 -1.2530601e-06 6.0828365e-10 2.3627232e-05 1.3836e-07 3.8477322e-07 -0.0009113149
-0.0002546111 -2.6376183e-05 2.7507082e-05 -8.080077e-05 7.7717227e-10 7.558949e-10 -4.488493e-09 -6.738149e-08
-1.3268988e-07 2.2744722e-38 6.6496375e-07 -2.4570022e-07 3.4005144e-38 -9.530567e-09 6.0138935e-11 -0.00018659132
0.0002771915 5.398684e-13 2.6106031e-06 -9.118192e-06 1.5101522e-12 -1.5288806e-09 2.2844482e-09 1.4435196e-11
5.764454e-08 5.2519063e-06 2.4531473e-06 1.4656477e-07 -4.798854e-10 1.3461266e-12 2.2499779e-07 -0.0016443904
-3.1201872e-38 3.585635e-05 1.3802695e-11 9.625122e-05 9.1189965e-11 -7.243144e-10 -1.7702564e-07 -5.380941e-06

bn3.weight f4 [64]
00000000: ab83 223e fdb5 bb38 a28c f43d 37b4 283f
00000010: d87f 633f da06 f917 ae55 a73f 3ded eea9
00000020: 5f5c b62b 7a1b 8a3e d2de f53d e784 933c
00000030: 4c6b febe 5096 0f36 09ba b33f d3bd 333f
00000040: 3014 5fbc 2ae9 62b6 17d8 953f b316 603f
00000050: 37f0 9e3e affd 733f 5b7f 3f3f c632 d23b
00000060: 6b2f 4ebc bca4 0540 0ee5 1c3d 118f 553e
00000070: 1970 a728 66ec c13c efbf 7f30 de9e 9f3e
00000080: 778e 433e 1833 143c e9a5 b83f b452 923f
00000090: cf8e 373e 0d62 452d ce06 6938 cf2e aa2a
000000a0: 3a92 b33f a5ec b108 dfe7 0f3f 0ca2 b63d
000000b0: 6cc5 0100 3331 2d3d cb51 60be 5a0d 0080
000000c0: 9371 ba3c ec38 1c3f 522e e2be b5f7 133d
000000d0: a30e b83e 6544 fa3b 2f8c bd3f e009 4422
000000e0: 4efc bc3c aa79 6d29 ce45 603e 2892 c637
000000f0: 8974 8e3d c570 df3d 1081 013f bc59 e23b
0.1587054 8.950753e-05 0.11940886 0.65899986 0.8886695 1.6092977e-24 1.3073022 -1.06104775e-13
1.2957516e-12 0.26974088 0.1200539 0.018007709 -0.49691236 2.1396154e-06 1.4041148 0.70211524
-0.013615653 -3.3812344e-06 1.170657 0.87534636 0.31042644 0.95308965 0.74803704 0.006414744
-0.0125845475 2.0881796 0.03830438 0.20855357 1.8589339e-14 0.023672294 9.3041214e-10 0.31175894
0.19097315 0.009045385 1.4425632 1.1431489 0.17925571 1.1219925e-11 5.5557866e-05 3.0230546e-13
1.4029 1.0708435e-33 0.5621318 0.08917627 1.62657e-40 0.04228325 -0.21906202 -4.79e-42
0.022759235 0.61024356 -0.44175965 0.036124904 0.35948667 0.007637548 1.4808406 2.656818e-18
0.023069527 5.2730098e-14 0.21901628 2.3671499e-05 0.06955821 0.10910181 0.5058756 0.00690767

bn3.bias f4 [64]
00000000: cf9f 97be 2df1 77bb 3836 9dbe 619e ef3d
00000010: 199e 3dbd f634 b0a6 ac8e 943e c026 e9af
00000020: 8427 d8a8 266f 12bf 882b a6be cdc5 1cbd
00000030: 61dd 973e e301 04b8 0f2d 57bd 2b01 55be
00000040: 33da eebd c8fe e0b7 6fb1 f9be 7454 a6be
00000050: 2aa3 8fbc a440 d0be 9d4f e63c 028a d4bc
00000060: 87b5 afbd 6120 e1be 866d a3be dd5b ccbe
00000070: 5aea 8ca9 f498 31bd 7863 64b0 5b5c 29bf
00000080: 52e1 4d3e 3c35 69bd dcc9 e23a 1374 e5be
00000090: c16c 0ebf eb46 26ad 0528 94b9 9ea2 26ab
000000a0: 32f2 13be 8f32 210c 753c ebbe 1fd0 84be
000000b0: 5cb4 c710 746b 17be 6881 98be 14e9 3aa1
000000c0: 5ff1 2ebe 07a7 2b3d 9dcb 7c3e cd20 5cbe
000000d0: 6b70 18bf 9fb0 9cbd d7e2 db3e eea4 66a2
000000e0: 2491 6dbd f89e 83a8 f65c 62be 316a 49b8
000000f0: 5445 17be e283 20be e771 213e 27e2 34bc
-0.29614112 -0.003783296 -0.30705428 0.1170013 -0.04629335 -1.2226808e-15 0.290151 -4.2409987e-10
-2.3997955e-14 -0.5720085 -0.32455087 -0.038274575 0.29661086 -3.147301e-05 -0.052533206 -0.20801227
-0.11662712 -2.6821523e-05 -0.48768184 -0.32486308 -0.017533857 -0.40674317 0.028114134 -0.025944714
-0.085795455 -0.43970016 -0.31919497 -0.39913836 -6.2579025e-14 -0.043358758 -8.308727e-10 -0.6615655
0.20105484 -0.056935534 0.001730259 -0.4481512 -0.55634695 -9.4517545e-12 -0.00028258577 -5.9200724e-13
-0.14447859 1.2418203e-31 -0.45944563 -0.25940034 7.876955e-29 -0.14787084 -0.2978623 -6.332773e-19
-0.17084263 0.041907337 0.24687047 -0.21496888 -0.59546536 -0.07650875 0.42946503 -3.1258126e-18
-0.057999745 -1.4612863e-14 -0.22105774 -4.8021033e-05 -0.1477254 -0.1567531 0.15766107 -0.011040247

bn3.running_mean f4 [64]
00000000: 4ebe 8bbf 8006 a9a8 d38b 24bf 4728 8f41
00000010: 4883 b741 d156 bba9 78b4 9f41 3344 a5b4
00000020: bd92 0133 96b1 b2bf 7255 a6be 2699 5eba
00000030: 8576 9cc1 6e27 fa37 c669 02c1 020c cf41
00000040: f486 6dba 179c 08b6 8c30 4bc0 006d 5e3f
00000050: e21e 91c1 f255 9940 7807 3041 f6e3 5238
00000060: e611 4a39 0fe2 73c2 50a5 93be c08e 94c1
00000070: c980 c3ad f129 a83e 3827 bf2f 53bf 60c0
00000080: da68 b3c0 e473 b5c0 cec1 8d40 9e4c 6fc1
00000090: 2f40 cebf 464a 9431 486c 6aac 87d2 5837
000000a0: 4bbc 1540 148d 10a9 0ae6 0e41 e649 34bf
000000b0: bab5 aeaa 24fa c53e 9e81 d1c0 0441 3dab
000000c0: 4b33 6e3b 19ed 5cc1 a02e f141 63af bb40
000000d0: 2a98 113f fa35 9a39 f31a c941 0543 c638
000000e0: 9c96 6ec0 c459 4bb6 3a2b f540 5b0e c0b6
000000f0: 2819 23b6 9c47 f940 9ce1 db41 64b7 8535
-1.0917451 -1.8765588e-14 -0.64275855 17.894667 22.939102 -8.3195285e-14 19.96312 -3.0783266e-07
3.016861e-08 -1.3960445 -0.32487065 -0.0008491449 -19.55787 2.9820683e-05 -8.150824 25.880863
-0.0009060942 -2.0356435e-06 -3.174838 0.8688507 -18.14008 4.7917414 11.001823 5.0280207e-05
0.00019270889 -60.97076 -0.2883706 -18.569702 -2.2226125e-11 0.328445 3.4770564e-10 -3.5116775
-5.6065493 -5.670397 4.429908 -14.956205 -1.6113337 4.315811e-09 -3.3313508e-12 1.29236205e-05
2.3396175 -3.209679e-14 8.931162 -0.7042526 -3.1034707e-13 0.38667405 -6.5470724 -6.7236516e-13
0.003634649 -13.807885 30.147766 5.8651595 0.5687281 0.00029413385 25.138159 9.453859e-05
-3.7279425 -3.0301608e-06 7.6615267 -5.723717e-06 -2.4303536e-06 7.7899914 27.48516 9.962646e-07

bn3.running_var f4 [64]
00000000: 1fa0 a53f 0400 0000 5cbd 983e a98c 2443
00000010: 9525 0344 0400 0000 dcd3 3b44 8f0b 5929
00000020: ce5d 8f0d bf31 bd40 7e41 de3e 0eed b935
00000030: 6231 d643 bb38 b61a b30a 2244 4693 bb43
00000040: b616 a934 8e5f 3431 8bf4 9f43 4048 df42
00000050: 280a db43 60db 1543 c9c9 e243 861a 8b2a
00000060: 5545 5533 c8d8 f644 4a2d a13d 4d4e b742
00000070: 0400 0000 0ff9 7b3f 0400 0000 8e5f 3b41
00000080: aa94 cb42 90b4 2542 5680 1744 b669 f143
00000090: 8c80 a041 0400 0000 0400 0000 eb45 611d
000000a0: 7908 5144 0400 0000 165c 1f43 9283 323f
000000b0: 0400 0000 ceab b741 09f1 4043 0400 0000
000000c0: e992 0f38 773b 0544 bad7 1d44 b073 4042
000000d0: 7d5f 1c42 afeb a033 6c85 aa44 8ed9 8f12
000000e0: baf1 f241 0400 0000 2525 4543 0400 0000
000000f0: 9cb7 812d 67c9 8e42 77f1 6f44 7bbe 972b
1.293949 6e-45 0.2983197 164.54945 524.5872 6e-45 751.3103 4.8193705e-14
8.835638e-31 5.9123225 0.43409342 1.3852566e-06 428.3858 7.536509e-23 648.1672 375.15057
3.1495227e-07 2.6247764e-09 319.9105 111.64111 438.07935 149.85693 453.57645 2.4709764e-13
4.9655984e-08 1974.7744 0.07869966 91.65293 6e-45 0.9842691 6e-45 11.710829
101.79036 41.42633 606.00525 482.82587 20.062767 6e-45 6e-45 2.9814649e-21
836.1324 6e-45 159.35971 0.6973201 6e-45 22.958889 192.94154 6e-45
3.4230678e-05 532.92914 631.3707 48.112976 39.09325 7.493451e-08 1364.1694 9.0782e-28
30.36803 6e-45 197.1451 6e-45 1.4747141e-11 71.393364 959.7729 1.0782064e-12

fc4.weight f4 [64, 64]
00000000: 3420 6838 a656 1328 49ff 6d38 8eef f3bd
00000010: 5d7d 4abe 8a7d 0680 6c56 0dbd 9cc7 cb2b
00000020: 5fec 8102 523b ae39 21ef 5e37 aec7 0400
00000030: 6a2b 9d3a d357 0300 a045 b6be 0c48 7abe
00000040: 2fcf 72b6 0da5 1a33 99b6 71be 1254 ccbe
00000050: c7a3 1e3c bca2 5ebe 26d4 a0be 1ed5 0180
00000060: 597d 6b39 22c7 83bf 226a 313a 68ac 22be
00000070: 7955 0400 add4 1f9f 2d71 0380 5ed9 4bb6
00000080: 8a03 39bd 834a 9fbd f2fa 81bd 6648 5cbe
00000090: dde7 deb5 d2e7 0400 e186 0380 50b2 dd97
000000a0: 9dee d9be 61ef 3307 9db2 c3bc dc72 d0ae
000000b0: 9994 9c0b 6626 5cbd bc3a 9cb7 cca1 439b
000000c0: ca90 70ac 990e 9cba c7d6 9b3e 8d6a 90b8
000000d0: eb96 3abb c719 4939 08d1 a3be 8634 0500
000000e0: 570f 8ca5 ce06 0500 829e 59be 0dc5 0200
000000f0: 4147 9483 56a8 19be 2765 613f 9278 812d
00000100: e18c d9b4 9d31 a7b9 edd5 0100 53bc 25bc
00000110: 73a4 213c e90c 0800 5f4f 62be 5e37 0100
00000120: c49b 0180 7c8d c8ad e740 3e25 5881 d7af
00000130: bb7d 0300 2504 0300 b43a bbbd fa7a f13a
00000140: af1e 0600 4997 0380 8f10 40be f2fe b0bc
00000150: 6332 0300 4483 2dbc 47f0 05be 0d40 0c80
00000160: 8548 08b1 588d 9bbe d492 af29 f758 0580
00000170: 7197 0200 256f 0680 2523 0280 2378 a1a2
00000180: 7a76 e13e 72ea 1fbc d26d 30be c1e9 05be
00000190: d3cc 4032 01ff 0400 ecfa 0100 a8cd 0280
000001a0: 1459 86bd aca9 0100 c4aa b436 0c67 22b0
000001b0: 3f8a 0600 9151 a43b 1b71 ac81 3cc6 0480
000001c0: b619 0480 ab4d efb8 46eb adb8 9429 07b6
000001d0: d297 e9bb 50e8 5a2d fa52 213d f15b 0080
000001e0: 76fc 57b0 a3cf 0280 8400 8ebd f33a 0380
000001f0: 074b 0680 ea53 2dbd 701f 8181 7775 0600
00000200: 98a3 0dba 01ac b7ab 3376 0abc 73db a53e
00000210: 967c 9b3e 7067 0300 88a5 cd3e 64b9 84af
00000220: b16a 0480 bec3 c2bb 7727 d6bc 4a54 bcb5
00000230: c855 203e e6c4 0000 67e1 8dbf dfb2 4b3e
00000240: 9aa6 0100 6874 b6b5 f6be a8be beff 4abd
00000250: 485a 1bbe 0243 c23d df26 0dbf 88cb 0500
00000260: c33d 98bb b847 5abf 9ca3 eb3a 6e40 6a3d
00000270: c1f3 0480 e492 6838 b9da 0100 08a6 f63c
00000280: 8a39 a1bd 0f79 8f3e 768f 74bf 3a38 c0bd
00000290: 519f 0b3d bd1f 0280 9c08 0180 c3b4 3f1d
000002a0: 801d e5be e3cf 020c d6ae 823e 0a76 32b7
000002b0: 0ffa ea0f aedc fe3d 9882 3dbe 9d17 ec9e
000002c0: 59e2 a032 8329 5b3e e50a db3e ea35 ae3e
000002d0: 8c42 e23d 1203 8c39 9e2c 3c3f e949 0080
000002e0: 02bf 47b3 332a 0000 6cc6 0f3d c42a 0280
000002f0: c260 582f 6cd1 543e 6e02 6d3f 24c5 61b4
00000300: ae76 a03d 301d 74ad eb0d 56bc 1dd9 d0be
00000310: 788a 9bbf 22da a52c a9d6 1b3f 3a41 87b4
00000320: 5d32 0680 af60 b5bc 1ade f6bc b909 cb34
00000330: 1de4 3d3f b6e7 0400 6b5a 2e3f fb5c 9dbe
00000340: 1c51 113b 7a64 7c37 f773 273e c92a 743f
00000350: 4ac6 073f b525 4fbe db0f 8d3f 4fca 2f33
00000360: 4207 a43a 03cb 02be 324b 84b9 0c52 06be
00000370: f947 0780 78f5 a4b3 f110 0780 2845 283d
00000380: 0f74 e33f 07ee bebe 31be b53f f0fb 5cbf
00000390: 7e78 abbc a654 0380 5876 0480 de46 0080
000003a0: 19b5 a03f f1cd 8f8c 6db7 db3c fd8d 123c
000003b0: 1e9c 4092 b8b4 69be 998f 02be 1c0a 1221
000003c0: 28c6 592a b550 fb3d 78f2 11bf 0eb4 06be
000003d0: a11d fdbd 0cc0 7539 23f1 bfbf 7137 0180
000003e0: cfbf f935 0b87 0280 99f4 103e cef9 0080
000003f0: 340d 63b4 f9a7 8cbd 6c45 1e3e 9eaf 8f32
5.5343102e-05 8.178928e-15 5.6742956e-05 -0.11910926 -0.19774385 -5.96048e-40 -0.034506246 1.447942e-12
1.9090517e-37 0.00033232063 1.3287908e-05 4.38974e-40 0.0011991088 3.07012e-40 -0.35599995 -0.24441546
-3.6181407e-06 3.6006032e-08 -0.23604812 -0.3990789 0.009682602 -0.21741766 -0.31411856 -1.68288e-40
0.00022458042 -1.0295146 0.0006767829 -0.1588608 3.98004e-40 -3.384548e-20 -3.16106e-40 -3.0375882e-06
-0.04516939 -0.07777884 -0.06346692 -0.21511993 -1.660777e-06 4.50503e-40 -3.23892e-40 -1.4326803e-24
-0.4256486 1.353681e-34 -0.02388888 -9.479148e-11 6.03126e-32 -0.053747557 -1.8624e-05 -1.6182301e-22
-3.4186425e-12 -0.0011906206 0.304373 -6.886302e-05 -0.0028471302 0.00019178457 -0.31995416 4.7802e-40
-2.4296523e-16 4.61619e-40 -0.21251872 2.5436e-40 -8.715017e-37 -0.15005621 0.8804497 1.4719146e-11
-4.0521903e-07 -0.00031889687 1.68578e-40 -0.010115701 0.009865868 7.39315e-40 -0.2210059 1.11698e-40
-1.47714e-40 -2.28002e-11 1.6501863e-16 -3.9200176e-10 3.2061e-40 2.76993e-40 -0.09142056 0.0018423491
5.6202e-40 -3.29777e-40 -0.18756317 -0.021605942 2.93582e-40 -0.010590378 -0.1307994 -1.125003e-39
-1.9831827e-09 -0.30381274 7.797032e-14 -4.91092e-40 2.37998e-40 -5.90884e-40 -1.96278e-40 -4.3766337e-18
0.44035703 -0.009760486 -0.17229393 -0.13077451 1.12224425e-08 4.5882e-40 1.8185e-40 -2.57447e-40
-0.06559959 1.52702e-40 5.3842978e-06 -5.9081695e-10 6.00606e-40 0.0050146063 -6.334512e-38 -4.38455e-40
-3.76565e-40 -0.00011410875 -8.293106e-05 -2.014077e-06 -0.007128694 1.2443449e-11 0.039385773 -3.2982e-41
-7.8575313e-10 -2.58157e-40 -0.06933692 -2.96653e-40 -5.77928e-40 -0.042316355 -4.7432227e-38 5.93151e-40
-0.00054031005 -1.3050673e-12 -0.008451032 0.3239399 0.3036849 3.12613e-40 0.40165353 -2.4142388e-10
-4.05616e-40 -0.0059437444 -0.026141865 -1.4031623e-06 0.15657723 7.0634e-41 -1.1084412 0.19892453
1.51601e-40 -1.3593935e-06 -0.32958192 -0.0495603 -0.15171158 0.09485437 -0.5513744 5.32191e-40
-0.0046460344 -0.85265684 0.0017977837 0.05719035 -4.54784e-40 5.5449913e-05 1.70298e-40 0.030108467
-0.07872303 0.28022048 -0.95531404 -0.09385724 0.034087483 -1.95057e-40 -9.4924e-41 2.5372091e-21
-0.4474907 1.0077394e-31 0.25524014 -1.063711e-05 2.31705e-29 0.12444435 -0.18506849 -2.4997238e-20
1.8729382e-08 0.21402554 0.4278175 0.34025508 0.11047849 0.00026705168 0.7350558 -2.6514e-41
-4.650702e-08 1.5138e-41 0.03510134 -1.99012e-40 1.9679461e-10 0.20783013 0.9258183 -2.1026477e-07
0.07835136 -1.3876275e-11 -0.013064842 -0.40790644 -1.2151632 4.7137997e-12 0.6087442 -2.5193168e-07
-5.6908e-40 -0.022140829 -0.030135203 3.781877e-07 0.741762 4.50464e-40 0.68106717 -0.30735
0.002217359 1.50437645e-05 0.16352831 0.95377785 0.5303694 -0.20229228 1.1020464 4.092936e-08
0.001251437 -0.12772755 -0.00025233027 -0.13117236 -6.68667e-40 -7.6814956e-08 -6.48926e-40 0.041081578
1.7769793 -0.37290975 1.4198667 -0.86321926 -0.020931479 -3.05873e-40 -4.09796e-40 -2.5422e-41
1.2555267 -2.2156585e-31 0.026820863 0.008944985 -6.0776947e-28 -0.22822845 -0.1275009 4.9480104e-19
1.9342221e-13 0.12271253 -0.570106 -0.13154623 -0.12359167 0.00023436564 -1.4995464 -1.11724e-40
1.8607769e-06 -2.32115e-40 0.14155807 -8.9613e-41 -2.1145826e-07 -0.06867976 0.1545617 1.6727252e-08

fc4.bias f4 [64]
00000000: b9c5 f03d af0c 64be 84b1 1a3f bc4e 9ebe
00000010: 1708 0ebf b218 603e 0a34 023f 71d1 11bd
00000020: 07f1 08be c342 2ca8 7406 0fbe 4ae5 80be
00000030: 2047 a13e 977d d9be 4f5a 6fbb efc8 073f
00000040: 80e3 13be e86b 80ba ae3c e1be 052c 823e
00000050: 1dd7 f93d 51d6 b83e 6d89 f8a8 0a33 0bbf
00000060: 3380 b2be 20ea 40bf 1d84 adb9 733f fc3c
00000070: 66e7 05be 0677 453f bf5c c7b9 b4e3 d53c
00000080: 6510 bebe d111 1fbf ad47 babe c14d 1bbe
00000090: b9a9 3c3e a482 ebbe c0c8 0fbe 9153 44be
000000a0: a1e5 21be c137 ccbc d1aa cfbc 464a 293f
000000b0: bf5f 1ebe 1cae 34b2 7c9f 133e 9b69 c8b9
000000c0: f675 4dba 6fb4 b23d e343 84be acf9 53bb
000000d0: 5ff2 3f3f b947 a9bd eb7b a4be 23b1 5cbe
000000e0: 90c0 b6be 9a4a e33d f286 0bbe 5cf2 8fbd
000000f0: b065 56a1 d3df c7be 9c4a 5ebe c18d 2c3f
0.117564626 -0.22270463 0.6042712 -0.30919445 -0.55481094 0.2188442 0.50860655 -0.03560013
-0.13373195 -9.562395e-15 -0.13967305 -0.25174934 0.31499577 -0.4247863 -0.0036522334 0.53040975
-0.14442253 -0.0009797784 -0.43991607 0.2542421 0.12199233 0.3610101 -2.759313e-14 -0.54374754
-0.34863433 -0.75357246 -0.00033095563 0.030791974 -0.13076553 0.7713474 -0.0003802534 0.026109554
-0.37121883 -0.6213656 -0.3638281 -0.1516638 0.18424119 -0.45998108 -0.14041424 -0.19172503
-0.15810253 -0.02492893 -0.025350006 0.6612896 -0.15466212 -1.0516967e-08 0.14416307 -0.00038225655
-0.0007837707 0.08725821 -0.25833043 -0.003234486 0.74979204 -0.08265633 -0.32125792 -0.21551947
-0.3569379 0.110982135 -0.13625696 -0.07028648 -7.26406e-19 -0.39037952 -0.21708149 0.674038

fc5.weight f4 [32, 64]
00000000: 556e 8da6 cffa 9338 2f31 e336 ec93 4ebc
00000010: b339 25b8 78ff 16bd 76e0 63b8 8c4a 0280
00000020: e4f0 9dbc ef99 0000 474a e4b5 110b 0380
00000030: a9e1 3b38 97d0 bb21 aaff 10b7 0623 39b8
00000040: 5309 89b5 df58 bf2e e69b 2d03 a7e2 09bc
00000050: e83c 71b7 c9e6 55bc 362f 0680 b7e5 f4b5
00000060: 5eb5 8dbb c9cb b4bb 18c2 b72a bd8c 72bb
00000070: 4c81 9b28 9f86 b4bc 7f2f 0500 daaf 6a32
00000080: 6b9b 5a38 d646 3ab5 bcce 0180 4e29 8393
00000090: fbf3 4cbc 2f8a 9a3b cf8b 9e39 af5e 861b
000000a0: 3cb4 189d bb4d 1ab9 1519 d9b4 0a34 403d
000000b0: cfa0 0100 87ba 0180 679d 50bb 1a38 0580
000000c0: 347c 0000 0b88 1cbc 8645 0000 0b34 0100
000000d0: 25a1 bdb4 b627 373d a68c 138e 5952 66ba
000000e0: 185e 0083 403f 60bb 4784 a0b9 f4ca 0100
000000f0: bbe7 0000 66e7 0680 83a7 0480 ca39 a6b8
00000100: 391e 0200 8996 2328 76dd 0100 1ced aa07
00000110: e67f 0100 6abd 0200 398c 0600 6d69 0400
00000120: a3a0 a692 7054 0180 5eaf 4fad 8fdf 0000
00000130: 2434 0700 1dc2 0400 eca3 301e e846 0400
00000140: 085b be27 1699 0400 9be8 0600 1458 aaa0
00000150: 0445 0300 8acb 8bad 90bb d380 bf18 b994
00000160: bb19 0000 494f 0400 1530 0300 dbe5 0200
00000170: 557b 0100 fdee 23a9 cb52 0200 217e 0280
00000180: eee0 9aa7 cb8b 76ac 6401 0380 d056 0100
00000190: 8456 daa6 5035 0100 e4c7 0680 b768 0600
000001a0: c43a 0700 8854 0000 062a 0380 cf97 8eb1
000001b0: f0c3 0580 d773 0300 751b 0b00 6c6c 0100
000001c0: c3a5 0100 9a00 e9a6 e266 0600 ba98 0200
000001d0: 8565 0200 73fe 0280 cf76 2928 5df4 f7b0
000001e0: c159 0180 1584 0280 cb90 0000 5d95 0580
000001f0: ac26 0180 b3f7 0200 ac73 0180 e1de 0180
00000200: 5349 97b5 e6df 86aa 5799 3cb7 aaef c9b9
00000210: 7380 59b0 d3ba d81c 885c 2cb7 15d7 0100
00000220: 42c3 0600 50b0 0100 9d15 a39f 42b0 0000
00000230: 3621 759c 2dc4 0000 c7a0 0080 fda1 37b9
00000240: d82b aa29 fca0 0000 f30e 531c 678a 0180
00000250: c6a0 99a4 4a89 0100 cc00 8929 4b90 a93a
00000260: 6ca0 3cb7 82c2 8fb7 f43e 0280 743a 0000
00000270: 3d75 0580 2882 0280 db10 0280 8c84 9db4
00000280: e31b cfb6 7ba7 199c d1f6 1c1c 73c2 0200
00000290: 2d30 c9b2 2a2a 8618 9662 88b4 2018 f89c
000002a0: 12eb 61aa 994f 0e0e f6eb 0480 9dbd 0000
000002b0: 7a6d bfac 5ad7 0280 4f4d 0380 c033 0580
000002c0: 30b9 3e86 656d 0100 f52e 0400 2388 7808
000002d0: 5525 0eb9 979a c798 9b42 199f fa64 74ab
000002e0: 4796 19b0 017d 0a9d cff7 0100 bcca 0280
000002f0: 9526 0280 35ba f9b3 46e0 679c 9106 18b7
00000300: 8bd1 edbb 8c60 06be 7acc acbd 0f51 5fbf
00000310: c49e efbc 8b66 b0bf 1259 43be 5c6b e0a8
00000320: ce3e 81be 8bb1 9700 8eb3 7539 e4f0 3d37
00000330: e7ce 9dbe 757b 213b 1f70 0280 96e7 93bd
00000340: f803 ee34 401a 0100 db3e 5d3e 8c1d fb3e
00000350: d534 76be 2b1d ae3e 3013 0280 b425 4d21
00000360: 9154 57bf 23a8 2bbf 5639 0000 c5fe a33f
00000370: db0f 193c 4df1 fb3d 3673 0580 e6fc 60bb
00000380: 143f ddbe b1b3 693f 0019 3fa3 febb 0e35
00000390: 6c2e 683f d2c3 0abe 2c0d fd3d 8c6f d33c
000003a0: 733a a23d 69c0 91be 985e 853f 8540 fd3e
000003b0: 46d1 0100 1466 0480 500a a6bd f7fc 0180
000003c0: 2c9c 5312 67f3 793c 7287 273f 332a 0080
000003d0: f2d8 09be f3da 123f ed24 0bb9 bd95 883a
000003e0: 434c 50bc 1f27 1ebf edeb 21bd d03d 0380
000003f0: 79fb 0280 d7e7 1233 48fc ddbc 9759 923d
-9.813746e-16 7.056223e-05 6.770853e-06 -0.0126085095 -3.9392802e-05 -0.036864728 -5.4330063e-05 -2.10413e-40
-0.019279905 5.5221e-41 -1.7008941e-06 -2.79476e-40 4.4794437e-05 1.2726826e-18 -8.642595e-06 -4.4140055e-05
-1.0210009e-06 8.701461e-11 5.1019093e-37 -0.008415855 -1.43789e-05 -0.013055512 -5.67949e-40 -1.8246272e-06
-0.004324599 -0.005517457 3.264201e-13 -0.0037010156 1.726453e-14 -0.022036849 4.76216e-40 1.3660577e-08
5.2119995e-05 -6.939348e-07 -1.65998e-40 -3.310978e-27 -0.012509341 0.00471618 0.00030240274 2.2229628e-22
-2.0210211e-21 -0.00014715541 -4.043765e-07 0.04692463 1.49523e-40 -1.58749e-40 -0.00318321 -4.79303e-40
4.4556e-41 -0.00955392 2.494e-41 1.10505e-40 -3.532124e-07 0.044715606 -1.8186869e-30 -0.00087860745
-3.7723834e-37 -0.0034217387 -0.00030616132 1.64641e-40 8.3129e-41 -6.34023e-40 -4.27434e-40 -7.926261e-05
1.94513e-40 9.08096e-15 1.71281e-40 2.5718117e-34 1.37717e-40 2.5162e-40 6.01315e-40 4.05162e-40
-1.0515673e-27 -1.22126e-40 -1.1805527e-11 8.0198e-41 6.61553e-40 4.36977e-40 9.351261e-21 3.92778e-40
5.283429e-15 4.22259e-40 6.34456e-40 -2.8857405e-19 3.00265e-40 -1.589286e-11 -1.9444574e-38 -1.8689987e-26
9.23e-42 3.95784e-40 2.92755e-40 2.66128e-40 1.36079e-40 -3.640056e-14 2.13372e-40 -2.28918e-40
-4.2987456e-15 -3.5036303e-12 -2.76005e-40 1.22978e-40 -1.5150239e-15 1.1096e-40 -6.2272e-40 5.88578e-40
6.6393e-40 3.0324e-41 -2.90582e-40 -4.1500026e-09 -5.29467e-40 3.17062e-40 1.02004e-39 1.3073e-40
1.513e-40 -1.6167786e-15 5.8792e-40 2.38459e-40 2.2009e-40 -2.7495e-40 9.407147e-15 -1.8041068e-09
-1.24033e-40 -2.31053e-40 5.1942e-41 -5.12759e-40 -1.05708e-40 2.72529e-40 -1.33331e-40 -1.7179e-40
-1.1271717e-06 -2.3958542e-13 -1.1241375e-05 -0.0003851627 -7.912668e-10 1.4341974e-21 -1.0273543e-05 1.68992e-40
6.21058e-40 1.55085e-40 -6.906894e-20 6.323e-41 -8.1106624e-22 7.0375e-41 -5.7676e-41 -0.00017512585
7.557122e-14 5.775e-41 6.9833365e-22 -1.41485e-40 -6.6625534e-17 1.41086e-40 6.0841604e-14 0.0012936679
-1.1243024e-05 -1.7137503e-05 -2.06254e-40 2.0969e-41 -5.01235e-40 -2.30362e-40 -1.89718e-40 -2.933997e-07
-6.172327e-06 -5.0839917e-22 5.1935073e-22 2.53426e-40 -2.3421387e-08 3.4680763e-24 -2.5403705e-07 -1.64175e-21
-2.0065571e-13 1.7541176e-30 -4.51989e-40 6.802e-41 -5.440701e-12 -2.60925e-40 -3.0324e-40 -4.77742e-40
-3.5871083e-35 1.31079e-40 3.84187e-40 7.4789813e-34 -0.00013556083 -5.159639e-24 -3.2454105e-20 -8.6826347e-13
-5.587463e-10 -1.8328773e-21 1.80732e-40 -2.56398e-40 -1.97512e-40 -1.1628837e-07 -7.6721355e-22 -9.061435e-06
-0.0072576455 -0.13122767 -0.08437438 -0.8723306 -0.02925051 -1.3781294 -0.19076946 -2.4915555e-14
-0.2524323 1.393085e-38 0.0002343191 1.1321365e-05 -0.30821916 0.0024640237 -2.23892e-40 -0.07221906
4.4333842e-07 1.01252e-40 0.21606009 0.4904598 -0.24043591 0.34006628 -1.90554e-40 6.95066e-19
-0.84113413 -0.6705343 2.0568e-41 1.2812124 0.009342159 0.12301884 -5.00507e-40 -0.0034330427
-0.43212187 0.9128981 -1.0359425e-17 5.3172687e-07 0.90695834 -0.13551262 0.12356028 0.025810026
0.079213046 -0.2846711 1.0419493 0.49463287 1.66909e-40 -4.03961e-40 -0.08107436 -1.82582e-40
6.6772357e-28 0.015255786 0.6544105 -1.5138e-41 -0.13461664 0.5736534 -0.00013269829 0.0010420602
-0.012713495 -0.61778444 -0.039531637 -2.9768e-40 -2.73882e-40 3.420413e-08 -0.027097836 0.07145994

fc5.bias f4 [32]
00000000: 3cb2 44bd dbdb fdad ab08 6fb8 bde7 14bf
00000010: 56ca 0fbe bfa7 09ba 16f0 5fbe 477c b8be
00000020: 3749 60b8 16e5 9e3e a555 6ab6 62e4 6ebb
00000030: 6769 ccbe f4f1 fb89 388e 24be c4e5 26bd
00000040: 2f72 c6bc 67ee 80bc e34e 9cbe 1c2c 32bf
00000050: d82b 07bd 8468 08bd 47f8 2cbc ee3e 89bb
00000060: 7676 0e8f db5f 92be 830d 9fbe 251f 8ebb
00000070: 1e5e 88bb 550a 1fbd cc77 a93e 163f 8db6
-0.04802154 -2.8860405e-11 -5.6990113e-05 -0.58166105 -0.14042029 -0.00052511314 -0.2186893 -0.36032316
-5.347395e-05 0.31034154 -3.491857e-06 -0.0036452045 -0.39924166 -6.0653584e-33 -0.16069877 -0.040746465
-0.024224369 -0.01573868 -0.30528936 -0.69598556 -0.033000797 -0.0333028 -0.010557241 -0.00418841
-7.023955e-30 -0.28588757 -0.31064996 -0.004337209 -0.0041616103 -0.038828213 0.3309921 -4.2094716e-06
