water_best.pt (torch, 20191 bytes, 25 tensors)

fc1.weight f4 [16, 13]
0.15849026 -0.30846992 0.08317977 -0.06620622 -0.15360107 0.14236303 0.07479437 0.09516877
-0.33375013 -0.22458047 -0.022618478 0.13106357 0.04090667 0.266908 0.2421087 -0.02152181
-0.15926647 0.0036079483 0.036954235 0.093774706 0.19246882 0.0980262 0.1739901 0.01931528
-0.010345992 0.08495948 -0.2626701 -0.05914412 0.026808066 -0.1986359 -0.24835108 -0.08496092
-0.2590324 0.25633585 -0.0029864344 0.12164203 0.15199512 -0.46358752 -0.15016507 0.021521745
-0.19572605 -0.3071838 0.0773027 0.09056989 -0.13200244 0.093776114 -0.10412224 0.1147533
-0.22177485 -0.104169354 -0.3424797 -0.21115543 -0.16083588 -0.09046545 -0.4063677 0.01428225
-0.02796251 0.17631601 -0.253399 0.01601317 0.20401254 0.03674579 0.0978511 0.16132155
-0.04195951 -0.086019546 -0.09096227 0.30395335 0.12268864 -0.036849637 0.06809535 -0.07525759
0.26346502 0.06388779 -0.08131695 0.11280852 -0.04184851 -0.21572542 -0.16501342 0.202559
0.15968817 0.008137027 -0.14624093 0.142659 0.22188137 -0.15145588 -0.18882567 -0.21607536
-0.054128718 -0.35428196 -0.2670505 -0.22554414 -0.25050077 -0.04785794 0.11348466 -0.018871704
-0.18942359 0.22339727 0.17145334 0.17559256 0.047833104 -0.22510056 -0.08287213 0.26112577
0.052099995 -0.26274 -0.0640951 0.25629136 0.08025066 0.08192053 -0.18435954 0.26379937
-0.17310166 0.00875603 -0.2604617 0.23356587 -0.07929851 0.2399602 -0.11974873 0.08984881
0.10922964 0.12897763 -0.113830395 -0.049655624 -0.29051742 0.1988027 -0.17953046 0.21206458
0.11029099 -0.29753515 -0.011100343 -0.06576394 -0.16617101 0.25094458 -0.20893258 -1.787499e-05
0.2448202 0.22234385 0.25939018 0.1167633 0.14981541 -0.19602446 -0.15743296 0.06781823
-0.2608677 0.05361934 -0.043926913 -0.13314077 -0.08972426 -0.086731486 -0.004811012 0.23526892
-0.20088094 0.02032631 -0.35602474 -0.19344996 -0.12200995 -0.045684174 0.23032138 -0.035897702
0.22087245 0.13981012 0.10397953 0.18109867 -0.28231928 -0.01050384 -0.18237104 0.19987124
0.09428744 0.032167677 -0.0860993 -0.25749838 -0.17454983 0.129868 0.14239794 0.076972716
0.1930302 0.022507384 0.1835202 0.3749132 -0.038345262 -0.20284429 0.23478316 0.1436796
0.16090146 0.039686766 -0.18538818 0.20648083 -0.023882246 -0.12798855 0.067919746 -0.24008632
0.30058962 -0.1712585 0.17799506 -0.11287121 -0.0028633259 0.02133965 0.14779502 -0.16052257
0.046604052 -0.12679587 0.03507737 0.3723904 0.034448322 -0.2004846 0.18172722 -0.14359358
00000000: 454b 223e c5ef 9dbe 285a aa3d 2097 87bd
00000010: 9949 1dbe 9dc7 113e ca2d 993d d8e7 c23d
00000020: 4ce1 aabe 6cf8 65be 634a b9bc 8735 063e
00000030: c18d 273d 2aa8 883e 58eb 773e 824e b0bc
00000040: c016 23be 5473 6c3b 535d 173d f40c c03d
00000050: 8c16 453e f6c1 c83d 762a 323e 143b 9e3c
00000060: 3c82 29bc 3cff ad3d b27c 86be 1b41 72bd
00000070: 979c db3c 3667 4bbe bf4f 7ebe feff adbd
00000080: e59f 84be 743e 833e 0eb8 43bb 751f f93d
00000090: 9ca4 1b3e 585b edbe dfc4 19be 5f4e b03c
000000a0: 696c 48be 3247 9dbe e150 9e3d b57c b93d
000000b0: a62b 07be b10d c03d 0a3e d5bd c703 eb3d
000000c0: f218 63be be56 d5bd 8059 afbe 2139 58be
000000d0: 29b2 24be f345 b9bd 6d0f d0be 1900 6a3c
000000e0: a211 e5bc 2f8c 343e 84bd 81be 0d2e 833c
000000f0: aae8 503e c182 163d 2866 c83d 7a31 253e
00000100: bcdd 2bbd 042b b0bd 6d4a babd c69f 9b3e
00000110: 2f44 fb3d a5ef 16bd 9375 8b3d a720 9abd
00000120: e3e4 863e 9ad7 823d 8089 a6bd 2708 e73d
00000130: 5869 2bbd 20e7 5cbe 47f9 28be a06b 4f3e
00000140: 4c85 233e 2a51 053c 2fc0 15be 3315 123e
00000150: df34 633e 4017 1bbe 845b 41be dc42 5dbe
00000160: 13b6 5dbd 7264 b5be d8ba 88be 0bf5 66be
00000170: a341 80be b006 44bd a56a e83d d598 9abc
00000180: 42f8 41be 41c2 643e 7791 2f3e 89ce 333e
00000190: a5ec 433d c380 66be ddb8 a9bd 47b2 853e
000001a0: ce66 553d db85 86be 4b44 83bd 9f38 833e
000001b0: 755a a43d f3c5 a73d bfc8 3cbe b610 873e
000001c0: 9041 31be 7475 0f3c 3c5b 85be e42b 6f3e
000001d0: 4267 a2bd 20b8 753e d23e f5bd a702 b83d
000001e0: cab3 df3d b612 043e e91f e9bd b263 4bbd
000001f0: b3be 94be ef92 4b3e d5d6 37be 7527 593e
00000200: 3ee0 e13d 8756 98be 37de 35bc 3faf 86bd
00000210: bc28 2abe cf7b 803e 6cf2 55be 40f2 95b7
00000220: 26b2 7a3e 1bae 633e cace 843e 9921 ef3d
00000230: 3669 193e a3ba 48be 1b36 21be 49e4 8a3d
00000240: 7490 85be f49f 5b3d b5ec 33bd 0e56 08be
00000250: 5ac1 b7bd 47a0 b1bd b2a5 9dbb 56ea 703e
00000260: bcb3 4dbe 5d83 a63c e048 b6be bf17 46be
00000270: 5ae0 f9bd 541f 3bbd 5ed9 6b3e 7809 13bd
00000280: 632c 623e 622a 0f3e 38f3 d43d ee71 393e
00000290: 278c 90be 4c18 2cbc 79bf 3abe 0cab 4c3e
000002a0: c619 c13d 41c2 033d d454 b0bd d4d6 83be
000002b0: 31bd 32be 1efc 043e c4d0 113e dfa3 9d3d
000002c0: b5a9 453e 6861 b83c b8ec 3b3e 9ff4 bf3e
000002d0: ec0f 1dbd 6ab6 4fbe ff6a 703e bf20 133e
000002e0: 5ac3 243e 978e 223d 66d6 3dbe b66f 533e
000002f0: b3a4 c3bc 6e0f 03be 8219 8b3d 30d9 75be
00000300: e2e6 993e 635e 2fbe 5644 363e 0529 e7bd
00000310: a3a6 3bbb 7dd0 ae3c 9457 173e 0760 24be
00000320: e4e3 3e3d c7d6 01be 4aad 0f3d f4a9 be3e
00000330: af19 0d3d d64b 4dbe b316 3a3e 320a 13be

fc1.bias f4 [16]
-0.12783726 0.12518965 -0.23629802 -0.22919524 0.02145559 0.16911153 -0.1332081 -0.15660262
0.113026306 -0.21063207 0.28044727 0.114508934 -0.14816757 0.11372987 0.042261858 0.10048107
00000000: c5e7 02be b731 003e 1cf8 71be 28b2 6abe
00000010: a2c3 af3c 932b 2d3e b467 08be 705c 20be
00000020: 567a e73d efaf 57be c996 8f3e a983 ea3d
00000030: 3db9 17be 35eb e83d c51a 2d3d 05c9 cd3d

bn1.weight f4 [16]
1.0095316 1.0411078 1.052569 0.9930885 1.0043255 0.9621979 1.0129954 0.9938746
1.0916678 0.9803491 0.99239486 1.035809 0.9312665 0.953402 0.9113551 1.0022035
00000000: 5538 813f 0543 853f 95ba 863f 0c3b 7e3f
00000010: bd8d 803f 9a52 763f d5a9 813f 916e 7e3f
00000020: c5bb 8b3f 29f8 7a3f 970d 7e3f 6495 843f
00000030: 7b67 6e3f 2712 743f 914e 693f 3448 803f

bn1.bias f4 [16]
0.022306258 0.076032296 0.09269617 0.055648927 0.03299581 -0.015936522 0.024202077 -0.058510624
0.120831795 -0.011090535 0.075998306 0.07508489 -0.048401285 -0.0017571755 -0.06693212 0.002576311
00000000: 9dbb b63c d2b6 9b3d 7dd7 bd3d 21f0 633d
00000010: 9d26 073d 4f8d 82bc 6f43 c63c d6a8 6fbd
00000020: a976 f73d 13b5 35bc 00a5 9b3d 1bc6 993d
00000030: 6d40 46bd 0751 e6ba b513 89bd 53d7 283b

bn1.running_mean f4 [16]
-0.12689237 0.11197568 -0.17667934 -0.2238403 -0.0024770517 0.1397617 -0.074514695 -0.1728597
0.049259447 -0.25128502 0.23509988 0.11817546 -0.1605509 0.08970012 0.06415848 0.04894607
00000000: 13f0 01be 8153 e53d 6eeb 34be 6436 65be
00000010: 0856 22bb b11d 0f3e 299b 98bd 2202 31be
00000020: 46c4 493d 6ea8 80be 06be 703e fa05 f23d
00000030: 7567 24be b2b4 b73d 8565 833d ad7b 483d

bn1.running_var f4 [16]
0.38005978 0.16502792 0.7615677 0.4225853 0.3691108 0.41370505 0.5801764 0.34279346
0.4135077 0.3762431 0.3726749 0.3740669 0.3463112 0.37994614 0.3422704 0.27378193
00000000: 3297 c23e 14fd 283e 1af6 423f 1a5d d83e
00000010: 17fc bc3e 26d1 d33e 7186 143f a082 af3e
00000020: 48b7 d33e f0a2 c03e 3fcf be3e b285 bf3e
00000030: b44f b13e 4d88 c23e 113e af3e 252d 8c3e

fc2.weight f4 [32, 16]
-0.020755162 0.117052086 0.043476537 -0.21790463 0.047397237 -0.25222582 -0.053789906 0.17278384
0.105599575 0.055102058 0.24523155 -0.12838322 0.16692837 0.10249381 -0.028227149 0.14145719
-0.2253115 -0.023781868 0.16002655 -0.117383875 0.1450825 0.11671058 -0.11584489 0.24282481
0.06481582 0.23369937 0.004056822 -0.20679015 -0.19512853 -0.24012892 -0.18452579 -0.115836374
0.12396835 -0.07566068 0.009082689 -0.016162569 0.12536575 -0.27137345 0.0031350823 -0.007628842
-0.26380804 -0.24241951 0.12410877 -0.08122836 0.15233791 -0.12216357 -0.005683151 0.08188321
-0.098684005 -0.1456462 -0.19482577 -0.14590046 0.29420313 -0.119135074 0.012312876 0.03673578
-0.16321647 0.11776917 -0.23429827 -0.16847211 -0.09295552 -0.10433652 -0.06029963 -0.06947575
-0.13112207 0.13132386 0.053703763 0.17488216 0.0370045 -6.233037e-05 0.041164886 -0.16699658
-0.1332803 -0.01887214 0.2867926 0.2305378 -0.30788454 -0.16137056 -0.098466724 0.2596576
0.11426923 -0.112558134 -0.26527825 0.0815795 -0.16208251 -0.11976927 -0.20871648 0.027618317
-0.052811272 -0.034906358 0.050053954 -0.14189605 -0.11157921 -0.0777258 -0.10036167 -0.03071703
0.1753494 0.122875 -0.07156607 -0.25611508 0.21103218 0.111246616 -0.12575053 -0.09444669
0.0330337 -0.026589155 -0.26743042 -0.052857947 0.009944819 -0.21463157 0.23526281 -0.0051156357
0.050248154 0.17694284 0.19393109 0.22790378 0.09656079 0.051544335 0.094192564 -0.06398286
0.14610611 -0.011948631 -0.03038173 0.09218365 0.2630181 0.1455129 -0.004982439 -0.013422982
-0.0860532 0.12344575 0.2503989 -0.01983526 -0.09065436 0.13586903 0.2826819 0.00605327
0.15215471 -0.17022736 0.19095546 -0.020838585 -0.09389827 0.07111325 -0.061580874 -0.18790326
0.016831668 0.043551225 0.16869618 0.0065774177 -0.13460031 -0.04835025 0.0751425 0.09449386
-0.18564546 0.098611675 -0.095547356 -0.23049417 0.005724636 -0.17428786 0.20381325 0.062970944
-0.04023344 0.16603841 -0.28073272 0.081077024 -0.02584023 0.077344775 0.22000499 -0.21245985
-0.11252851 0.1767921 -0.24971336 0.087160744 0.14420584 0.016909678 -0.25319052 -0.23243514
0.027727973 -0.0005960724 -0.056064844 0.05922746 -0.2974825 -0.3879925 0.07078603 0.21212834
-0.25265288 -0.106729954 0.16807978 0.16006212 0.099939354 -0.18608636 0.19879861 0.15398236
0.13715371 -0.17646103 0.07200954 -0.14582197 -0.11080496 0.17915781 0.12026475 -0.03171566
0.10406333 0.18653053 0.23499568 -0.069792785 0.17224824 0.10726797 0.12812252 0.28454322
-0.20625025 0.1068881 0.13009678 -0.15515198 -0.12155062 0.19348496 0.13817386 -0.0664445
0.13992764 -0.20942882 0.15274489 0.11688274 0.21074806 -0.16574064 0.15791446 -0.19292606
0.14224003 0.21192501 0.17702584 0.20287015 0.05962725 -0.18226221 0.037377495 -0.22388814
0.15150623 -0.15238915 -0.198151 0.1035813 0.0072373785 -0.23744836 0.19094762 -0.22936456
-0.11909019 0.17918772 0.12522842 -0.24329239 -0.20005196 -0.079107575 0.16256726 0.20429622
0.10728789 -0.033275113 -0.039936356 -0.105774455 0.05529396 0.2482524 0.0492049 0.1581446
00000000: bb06 aabc 01b9 ef3d 7414 323d 6422 5fbe
00000010: 9b23 423d be23 81be ce52 5cbd 3fee 303e
00000020: 9744 d83d b2b2 613d fb1d 7b3e e476 03be
00000030: 45ef 2a3e 46e8 d13d 9f3c e7bc 27da 103e
00000040: 0fb8 66be 31d2 c2bc 00de 233e f566 f0bd
00000050: 8290 143e f505 ef3d 1640 edbd 11a7 783e
00000060: 28be 843d e34e 6f3e 17ef 843b ccc0 53be
00000070: c6cf 47be 5be4 75be 54f4 3cbe 9f3b edbd
00000080: 1ee3 fd3d fdf3 9abd 8fcf 143c 5d67 84bc
00000090: e15f 003e 76f1 8abe f475 4d3b 5dfb f9bb
000000a0: d911 87be d23c 78be bd2c fe3d 0e5b a6bd
000000b0: 78fe 1b3e e530 fabd ba39 babb 62b2 a73d
000000c0: d71a cabd 4724 15be 6880 47be ee66 15be
000000d0: cba1 963e 17fd f3bd f2bb 493c 4278 163d
000000e0: 3822 27be f630 f13d e3eb 6fbe f483 2cbe
000000f0: 775f bebd 63ae d5bd bffc 76bd 4d49 8ebd
00000100: dd44 06be c379 063e 7af8 5b3d 4f14 333e
00000110: 0892 173d 5db7 82b8 839c 283d 2701 2bbe
00000120: a27a 08be bf99 9abc 7bd6 923e 1a12 6c3e
00000130: 0ba3 9dbe 533e 25be eca8 c9bd d7f1 843e
00000140: fc05 ea3d e184 e6bd 8dd2 87be 2713 a73d
00000150: f5f8 25be 9749 f5bd c6b9 55be cf3f e23c
00000160: a250 58bd f8f9 0ebd 6005 4d3d 334d 11be
00000170: a483 e4bd b42e 9fbd 6b8a cdbd 48a2 fbbc
00000180: cb8e 333e e3a5 fb3d 3b91 92bd 8421 83be
00000190: d218 583e 44d5 e33d bfc4 00be 446d c1bd
000001a0: 584e 073d 80d1 d9bc a4ec 88be 9381 58bd
000001b0: 98ef 223c 61c8 5bbe bce8 703e 10a1 a7bb
000001c0: 02d1 4d3d 8130 353e df95 463e 9c5f 693e
000001d0: aac1 c53d 2720 533d 08e8 c03d 7209 83bd
000001e0: d79c 153e 31c4 43bc 1be3 f8bc c8ca bc3d
000001f0: 4faa 863e 5501 153e ba43 a3bb 11ec 5bbc
00000200: a93c b0bd 20d1 fc3d 4934 803e 8e7d a2bc
00000210: fea8 b9bd 4021 0b3e afbb 903e 825a c63b
00000220: 72ce 1b3e 1550 2ebe d489 433e aeb5 aabc
00000230: bc4d c0bd d3a3 913d 3a3c 7cbd b669 40be
00000240: 91e2 893c c562 323d b1be 2c3e 6187 d73b
00000250: aad4 09be e90a 46bd 50e4 993d ff85 c13d
00000260: d819 3ebe ebf4 c93d 55ae c3bd aa06 6cbe
00000270: ba95 bb3b 8478 32be 6cb4 503e e9f6 803d
00000280: d2cb 24bd f905 2a3e 33bc 8fbe b60b a63d
00000290: e4ae d3bc f066 9e3d fd48 613e 138f 59be
000002a0: 5975 e6bd fd08 353e dcb4 7fbe 5581 b23d
000002b0: b2aa 133e 2a86 8a3c 30a2 81be 7a03 6ebe
000002c0: c625 e33c be41 1cba 40a4 65bd 7e98 723d
000002d0: a04f 98be f4a6 c6be 44f8 903d 2c38 593e
000002e0: b85b 81be 3c95 dabd 1b1d 2c3e 53e7 233e
000002f0: 01ad cc3d 6c8d 3ebe dd91 4b3e 8dad 1d3e
00000300: 0672 0c3e 33b2 34be bd79 933d 5b52 15be
00000310: b6ed e2bd 2575 373e 5e4d f63d 48e8 01bd
00000320: 281f d53d dc01 3f3e b5a2 703e 85ef 8ebd
00000330: d861 303e 4faf db3d 8d32 033e a6af 913e
00000340: 4433 53be 26e8 da3d 1738 053e 29e0 1ebe
00000350: 88ef f8bd ec20 463e 737d 0d3e 0e14 88bd
00000360: 3149 0f3e 8274 56be 2869 1c3e 3860 ef3d
00000370: 57ce 573e eab7 29be 54b4 213e 698e 45be
00000380: 5fa7 113e df02 593e 4346 353e 31bd 4f3e
00000390: b43b 743d f2a2 3abe 2519 193d ef42 65be
000003a0: 7324 1b3e e70b 1cbe 19e8 4abe 6f22 d43d
000003b0: 8827 ed3b aa25 73be c687 433e 8bde 6abe
000003c0: 8fe5 f3bd fc7c 373e e13b 003e a421 79be
000003d0: 6cda 4cbe 2703 a2bd 0878 263e 0733 513e
000003e0: c1b9 db3d 7c4b 08bd 4e94 23bd 47a0 d8bd
000003f0: eb7b 623d e135 7e3e 148b 493d a8f0 213e

fc2.bias f4 [32]
0.21423516 0.007927393 -0.1745397 -0.17376101 -0.13948677 -0.20663704 -0.12910856 -0.013516142
0.11549892 -0.018813256 -0.116820745 -0.02179286 -0.24745373 -0.1660048 0.025740888 -0.20066231
-0.016051065 -0.21488403 0.112270236 -0.18043694 -0.1668921 -0.009974672 0.21490453 -0.20595063
-0.21502103 -0.12820873 -0.09940777 0.159973 -0.10921686 -0.2392102 -0.13707991 -0.16631679
00000000: 7660 5b3e e5e1 013c 89ba 32be 68ee 31be
00000010: 9fd5 0ebe a998 53be 0935 04be cf72 5dbc
00000020: b38a ec3d 421e 9abc b73f efbd f186 b2bc
00000030: 8364 7dbe 2afd 29be 8ede d23c 6c7a 4dbe
00000040: 867d 83bc 8f0a 5cbe f0ed e53d 76c4 38be
00000050: c3e5 2abe cf6c 23bc ef0f 5c3e b9e4 52be
00000060: 792e 5cbe 2649 03be 4d96 cbbd f6cf 233e
00000070: 17ad dfbd 85f3 74be ad5e 0cbe f34e 2abe

bn2.weight f4 [32]
0.96579915 0.99395555 0.9715286 1.0366981 0.9954684 0.9878934 1.0627178 0.95482224
1.0148656 1.0306809 0.9832309 0.9966694 1.0179629 0.99104863 0.9387248 1.0247766
1.0229634 0.9458355 1.0396203 1.0236804 0.99074465 1.0221041 0.9651032 0.9652946
0.9725729 1.0460472 1.0036887 0.9909609 1.032456 0.99520195 1.0140579 0.99347824
00000000: 9d3e 773f df73 7e3f 19b6 783f 86b2 843f
00000010: 04d7 7e3f 95e6 7c3f 2307 883f 3b6f 743f
00000020: 1ee7 813f 5aed 833f 05b5 7b3f ba25 7f3f
00000030: 9c4c 823f 5db5 7d3f 4550 703f e12b 833f
00000040: 77f0 823f 4622 723f 4712 853f f607 833f
00000050: 71a1 7d3f 4fd4 823f 0111 773f 8c1d 773f
00000060: 8afa 783f e0e4 853f df78 803f 9daf 7d3f
00000070: 8527 843f 8ec5 7e3f a6cc 813f 9754 7e3f

bn2.bias f4 [32]
-0.016419655 0.06925066 -0.013961965 0.0670914 0.019514548 -0.004581341 0.05650674 -0.05760955
0.06045277 0.008843918 -0.00588606 -0.011584032 0.037924804 -0.0037239764 -0.06384716 0.0603187
0.06491045 -0.041524462 0.0453238 -0.026595253 0.031202734 0.013335401 -0.04865274 0.01975405
-0.032460764 0.05645066 0.054939017 -0.02058731 0.023888562 0.003993654 0.03118321 0.004193917
00000000: 8382 86bc 4ad3 8d3d bac0 64bc 3767 893d
00000010: f9dc 9f3c 131f 96bb 9d73 673d fef7 6bbd
00000020: 539d 773d 15e6 103c dadf c0bb f4ca 3dbc
00000030: 0a57 1b3d f50d 74bb 4dc2 82bd be10 773d
00000040: c5ef 843d 8e15 2abd 73a5 393d 4ade d9bc
00000050: e09c ff3c ba7c 5a3c 1848 47bd 3fd3 a13c
00000060: 94f5 04bd cf38 673d bc07 613d b8a6 a8bc
00000070: f2b1 c33c 33dd 823b ee73 ff3c 206d 893b

bn2.running_mean f4 [32]
0.41376555 -0.16926907 -0.39235735 -0.69082355 -0.002168584 -0.70778215 -0.23598346 0.6090909
0.37334257 -0.09485304 -0.30326492 -0.11618889 0.2359606 -0.050655402 0.091685236 -0.0068691806
0.08513521 -0.49293143 0.1664549 -0.28766805 -0.3114081 -0.14108633 0.37707877 -0.2654951
0.00010705429 -0.49715406 0.16408892 -0.38102502 0.05044519 -0.09799555 -0.30942336 -0.10108016
00000000: 14d9 d33e df54 2dbe 10e3 c8be d0d9 30bf
00000010: cd1e 0ebb 3631 35bf a6a5 71be 62ed 1b3f
00000020: c226 bf3e 5042 c2bd 8a45 9bbe 71f4 edbd
00000030: a89f 713e 0a7c 4fbd 78c5 bb3d dd16 e1bb
00000040: 5e5b ae3d 8261 fcbe 2773 2a3e 3a49 93be
00000050: e270 9fbe ef78 10be 7810 c13e f9ee 87be
00000060: 5682 e038 fa8a febe ed06 283e b615 c3be
00000070: 9e9f 4e3d e4b1 c8bd bd6c 9ebe 1d03 cfbd

bn2.running_var f4 [32]
0.1214972 0.096560046 0.08233621 0.15808839 0.28568813 0.084459454 0.27761477 0.08273827
0.17031437 0.0828792 0.14159517 0.15996215 0.15808114 0.16420147 0.09001328 0.12182766
0.111654334 0.16197172 0.20086773 0.07441963 0.22429267 0.045716807 0.10783244 0.13662979
0.10534885 0.09998594 0.1377556 0.14763896 0.13938573 0.13614962 0.0934663 0.11751773
00000000: 86d3 f83d 46c1 c53d e39f a83d ece1 213e
00000010: b745 923e 14f9 ac3d 8623 8e3e af72 a93d
00000020: e466 2e3e 92bc a93d 53fe 103e 1ecd 233e
00000030: 06e0 213e 6e24 283e e258 b83d c880 f93d
00000040: 07ab e43d eadb 253e 45b0 4d3e 5269 983d
00000050: faac 653e 8c41 3b3d 41d7 dc3d aee8 0b3e
00000060: 23c1 d73d 6ec5 cc3d ce0f 0d3e ab2e 173e
00000070: 22bb 0e3e ce6a 0b3e 426b bf3d 23ad f03d

fc3.weight f4 [32, 32]
-0.07801448 -0.00036925214 -0.033928063 0.105418116 -0.03770455 -0.10361197 -0.08812772 -0.01668682
-0.0057041068 0.1811797 -0.16070366 -0.015827611 0.051297523 -0.07487033 0.12399497 0.07892335
-0.22933622 -0.012296842 -0.20616987 0.08667187 0.030168382 -0.1594174 0.044028923 0.12992077
-0.036436263 0.13693483 0.04549744 -0.026798848 -0.0012188251 -0.023130521 0.03151936 0.11798667
-0.037924513 0.0877783 0.08545654 0.20640768 0.009069075 0.13808054 -0.094964035 -0.20111425
-0.050955564 0.09107187 -0.10351096 0.09843934 -0.15530492 -0.059272412 0.08131492 0.187681
0.042125016 0.08877581 -0.12459516 0.05389189 0.0072303475 -0.06787166 0.0027403194 0.022831192
-0.05669504 0.018070111 0.00501037 0.06641864 0.09635999 -0.10499278 -0.06585037 0.0747086
-0.026309486 0.08822488 -0.13993385 0.06302625 0.124380626 0.030111605 0.15570217 0.021379402
0.058942545 -0.026030034 0.1652765 -0.07930591 0.023953162 0.13696104 0.16903003 0.00667162
-0.1046906 -0.022634504 -0.10505035 -0.093498036 0.12876579 -0.047035348 0.03396475 -0.04023245
0.06775277 0.088114716 -0.117932156 0.1772774 0.022228103 0.08487334 0.072090596 -0.059541635
0.12784474 0.12859073 -0.07070449 0.12850067 -0.12235098 -0.08525633 -0.054277055 -0.21954542
-0.015941514 0.0119939055 -0.00020971958 0.087445304 0.1302596 0.042859145 0.0512507 -0.13866541
-0.04022131 0.04840861 -0.06724032 0.17796794 0.1536541 -0.12177373 0.05453032 -0.13097787
0.1073827 -0.05350665 -0.24847463 0.02286843 -0.17870507 0.081553884 0.09661199 -0.08836824
0.10347682 0.077411555 0.08017628 0.085586384 0.09547289 -0.070685804 -0.13953447 -0.085549675
0.10818976 -0.10677244 0.1240864 0.16027416 0.1472781 0.0010318193 0.13304947 -0.04477992
-0.2115377 -0.16129805 0.122906506 0.1846564 -0.10487347 -0.06340352 0.14318813 0.11944312
-0.064340115 0.16831015 -0.25135404 0.010467219 -0.022112805 -0.15517478 -0.07588119 0.11299292
-0.05741891 0.2129626 0.045457162 -0.038972266 0.020082051 -0.02304947 0.10416975 0.1293279
-0.12075976 -0.122439675 -0.16917324 0.037143342 -0.0006365343 0.004806652 -0.117697544 0.13243712
0.124793075 -0.065008685 0.015058947 0.022407632 -0.04513334 -0.09295813 0.06960946 0.11498397
0.04854505 -0.08282386 0.058790166 -0.22091782 -0.1756379 -0.12474073 -0.18426266 0.06342187
0.063777216 -0.16020955 -0.017083898 -0.16318634 0.1781136 0.05654707 -0.16253388 0.037848458
0.12179812 -0.060837023 -0.09473772 -0.1105031 -0.012575428 0.11700797 -0.11488238 -0.042255547
0.16168982 -0.09101863 -0.0077387216 0.06840701 -0.02126886 -0.04814569 -0.03984026 -0.12493315
-0.10524936 -0.17873035 -0.16225821 -0.13943337 0.04009806 -0.08503567 -0.0042534163 -0.12214257
-0.08157603 -0.15644085 -0.0023381882 0.177202 0.06327954 0.09031954 0.014901918 0.08120825
-0.061034065 -0.092730515 -0.06353412 0.12810697 -0.09154721 0.034135927 -0.084825754 0.1057477
0.090056755 -0.0051166615 -0.18395147 0.21567534 0.021905035 0.079956695 -0.14234208 -0.0915768
0.10297892 0.13052647 0.04066791 -0.037805583 -0.14118014 -0.084687024 0.17496288 -0.010854231
00000000: 0ec6 9fbd 2f98 c1b9 27f8 0abd 74e5 d73d
00000010: 1670 1abd 8332 d4bd 4e7c b4bd ccb2 88bc
00000020: 84e9 babb 2c87 393e 808f 24be e8a8 81bc
00000030: 5a1d 523d 9e55 99bd 13f1 fd3d 91a2 a13d
00000040: 1dd7 6abe b278 49bc 321e 53be 0581 b13d
00000050: af23 f73c 513e 23be ac57 343d f309 053e
00000060: 313e 15bd a538 0c3e 865b 3a3d 4289 dbbc
00000070: fcc0 9fba 387c bdbc 721a 013d ffa2 f13d
00000080: bc56 1bbd 1cc5 b33d d703 af3d 895c 533e
00000090: 7596 143c fc64 0d3e 817c c2bd e5f0 4dbe
000000a0: c8b6 50bd e383 ba3d 8efd d3bd 919a c93d
000000b0: 4108 1fbe a1c7 72bd 7088 a63d 732f 403e
000000c0: 488b 2c3d 18d0 b53d bf2b ffbd bebd 5c3d
000000d0: 8dec ec3b 4c00 8bbd ee96 333b 7b08 bb3c
000000e0: 0f39 68bd c507 943c 082e a43b 7f06 883d
000000f0: 6358 c53d 7406 d7bd 8fdc 86bd d300 993d
00000100: fe86 d7bc 3faf b43d d24a 0fbe e813 813d
00000110: 45bb fe3d 9dac f63c 6470 1f3e db23 af3c
00000120: bd6d 713d f03c d5bc 3e3e 293e 236b a2bd
00000130: 6c39 c43c 843f 0c3e 3516 2d3e 9b9d da3b
00000140: 0668 d6bd ff6b b9bc a324 d7bd e67b bfbd
00000150: 2edb 033e 23a8 40bd 9f1e 0b3d c8ca 24bd
00000160: f7c1 8a3d 7d75 b43d 6a86 f1bd 3588 353e
00000170: b617 b63c 13d2 ad3d 3ca4 933d eee1 73bd
00000180: bbe9 023e 4aad 033e 84cd 90bd ae95 033e
00000190: 2793 fabd df9a aebd 9e51 5ebd 84d0 60be
000001a0: c797 82bc 1682 443c 2ce8 5bb9 8616 b33d
000001b0: c662 053e 128d 2f3d 41ec 513d 4efe 0dbe
000001c0: 1abf 24bd 1b48 463d 4bb5 89bd 3a3d 363e
000001d0: 8057 1d3e 8164 f9bd 2f5b 5f3d 101f 06be
000001e0: 76eb db3d ca29 5bbd 2270 7ebe 9356 bb3c
000001f0: 76fe 36be b905 a73d 82dc c53d 68fa b4bd
00000200: a8eb d33d f389 9e3d 7633 a43d ea47 af3d
00000210: 4a87 c33d b8c3 90bd 20e2 0ebe ab34 afbd
00000220: 9892 dd3d 82ab dabd 0321 fe3d e91e 243e
00000230: 12d0 163e 1c3e 873a 1f3e 083e 266b 37bd
00000240: 579d 58be 512b 25be 68b6 fb3d 9116 3d3e
00000250: e7c7 d6bd b4d9 81bd e99f 123e 989e f43d
00000260: c0c4 83bd 7f59 2c3e 7ab1 80be b37e 2b3c
00000270: ea25 b5bc 23e6 1ebe 9967 9bbd d568 e73d
00000280: 1730 6bbd de12 5a3e 4a31 3a3d 62a1 1fbd
00000290: 1d83 a43c 3ed2 bcbc f356 d53d 886e 043e
000002a0: e550 f7bd a7c1 fabd c03b 2dbe 9e23 183d
000002b0: 18dd 26ba 1f81 9d3b 690b f1bd 999d 073e
000002c0: 8393 ff3d 4623 85bd cdb9 763c 3690 b73c
000002d0: bddd 38bd d560 bebd 688f 8e3d b77c eb3d
000002e0: 2dd7 463d 8e9f a9bd f5cd 703d 4838 62be
000002f0: 6cda 33be 1178 ffbd 5aaf 3cbe 53e3 813d
00000300: a19d 823d f90d 24be 88f3 8bbc 521a 27be
00000310: 6963 363e e79d 673d 486f 26be fc06 1b3d
00000320: 4b71 f93d 3e30 79bd da05 c2bd 734f e2bd
00000330: 2b09 4ebc e0a1 ef3d 7447 ebbd 2714 2dbd
00000340: 0492 253e fa67 babd 1a95 fdbb f918 8c3d
00000350: 083c aebc 6a34 45bd 8a2f 23bd f4dc ffbd
00000360: fa8c d7bd 1705 37be 0427 26be 9fc7 0ebe
00000370: dd3d 243d 2e27 aebd 3e60 8bbb e225 fabd
00000380: 5511 a7bd 0832 20be 4a3c 19bb 7174 353e
00000390: b498 813d 73f9 b83d 2d27 743c 8350 a63d
000003a0: dbfe 79bd 7fe9 bdbd 2d1e 82bd 792e 033e
000003b0: 1b7d bbbd 1dd2 0b3d 20b9 adbd 4092 d83d
000003c0: ad6f b83d aba9 a7bb c65d 3cbe ffd9 5c3e
000003d0: 3072 b33c 56c0 a33d 1fc2 11be 9e8c bbbd
000003e0: 9de6 d23d bba8 053e 6593 263d 07da 1abd
000003f0: 8791 10be 6470 adbd 7829 333e f2d5 31bc

fc3.bias f4 [32]
0.14097016 -0.096355006 0.07307984 0.04358329 0.084203385 -0.16428848 0.16916625 0.038154904
-0.11992628 0.03859948 -0.0069848406 0.096001126 -0.06065546 0.17726372 -0.07484489 -0.1493426
0.08093488 -0.039419197 0.05390812 -0.12092132 0.12538226 -0.08545111 -0.14235038 -0.09678159
0.1613201 0.035468552 -0.08619928 -0.076901615 0.02384109 -0.11170762 -0.11038421 -0.15711346
00000000: 7b5a 103e c655 c5bd e2aa 953d 6484 323d
00000010: d372 ac3d 3d3b 28be eb39 2d3e 5148 1c3d
00000020: e99b f5bd 7d1a 1e3d 17e1 e4bb 3d9c c43d
00000030: dc71 78bd 9f84 353e 4748 99bd 44ed 18be
00000040: 30c1 a53d 0676 21bd c3ce 5c3d 99a5 f7bd
00000050: 3564 003e fe00 afbd 4cc4 11be 6d35 c6bd
00000060: 1931 253e 7947 113d 4089 b0bd 987e 9dbd
00000070: 644e c33c f7c6 e4bd 1e11 e2bd 5ae2 20be

bn3.weight f4 [32]
0.94380605 1.0426586 0.97612846 1.0055978 0.9591651 0.94610006 0.93454224 1.005389
1.010176 1.0710218 0.965174 0.98762107 0.986632 0.9814836 0.9547151 1.0327307
1.0682172 1.0333109 1.0317135 0.94892895 1.0023863 0.90054727 0.95756817 0.98983556
0.9975159 1.0490069 0.94060165 0.96595925 1.0536371 1.1053693 1.0462703 1.0417316
00000000: 469d 713f d675 853f 8ee3 793f 6eb7 803f
00000010: d88b 753f 9d33 723f 293e 6f3f 96b0 803f
00000020: 724d 813f 3e17 893f a515 773f bcd4 7c3f
00000030: ea93 7c3f 8242 7b3f 3568 743f 8530 843f
00000040: 57bb 883f 8843 843f 300f 843f 02ed 723f
00000050: 324e 803f 448a 663f 3023 753f dd65 7d3f
00000060: 345d 7f3f dc45 863f 45cb 703f 1b49 773f
00000070: 95dd 863f be7c 8d3f 2fec 853f 7657 853f

bn3.bias f4 [32]
-0.021837927 -0.004157279 -0.024838937 0.044501357 -0.0018427477 -0.046504635 -0.040523924 0.011194051
0.03216813 0.07090921 -0.03652103 0.015450863 0.010378143 0.018044766 -0.044204965 0.042820133
0.051911455 0.032654636 0.012730352 -0.009450427 0.0020737567 -0.09069555 -0.03559655 0.0047477777
0.011034768 0.057822574 -0.034989715 -0.026431505 0.044635613 0.06705761 -0.028279494 -0.005909101
00000000: 74e5 b2bc c939 88bb 077b cbbc 0e47 363d
00000010: 5a88 f1ba a57b 3ebd 6afc 25bd 4167 373c
00000020: bbc2 033d d938 913d 1397 15bd 9e25 7d3c
00000030: 1609 2a3c 9ed2 933c 4410 35bd 2a64 2f3d
00000040: 1ba1 543d dec0 053d f792 503c f7d5 1abc
00000050: dde7 073b 97be b9bd b0cd 11bd 3f93 9b3b
00000060: 2ccb 343c 5dd7 6c3d 6051 0fbd e286 d8bc
00000070: d5d3 363d 8055 893d 66aa e7bc 22a1 c1bb

bn3.running_mean f4 [32]
0.074027665 0.049506973 0.43047613 -0.04009428 0.24628763 -0.34294528 -0.35058188 0.12229738
-0.22007258 -0.4414395 0.038820144 0.34846166 0.3626443 -0.26233682 -0.1997881 -0.22859259
0.21941502 -0.10748934 0.05454931 -0.18239625 0.5287746 -0.23463832 -0.93455654 -0.61047894
0.1258278 -0.19156048 -0.28017974 -0.27078703 -0.44121158 -0.45901233 0.025600621 0.13224393
00000000: d19b 973d d3c7 4a3d 5e67 dc3e e639 24bd
00000010: d332 7c3e 8696 afbe 787f b3be 0c77 fa3d
00000020: b55a 61be 5c04 e2be df01 1f3d 9169 b23e
00000030: 84ac b93e 0351 86be 4095 4cbe 2d14 6abe
00000040: 55ae 603e 5f23 dcbd 196f 5f3d 15c6 3abe
00000050: c65d 073f 0745 70be 193f 6fbf 5948 1cbf
00000060: 01d9 003e 6e28 44be b873 8fbe 99a4 8abe
00000070: 7ce6 e1be aa03 ebbe 65b8 d13c f46a 073e

bn3.running_var f4 [32]
0.1293654 0.18383239 0.14795466 0.2297586 0.093482554 0.15966317 0.15374158 0.17191793
0.15548947 0.16747266 0.17876682 0.18984358 0.15588342 0.15796429 0.15556946 0.16338676
0.083673805 0.11104186 0.14733626 0.14916264 0.15623835 0.19494572 0.1975091 0.19655682
0.17210697 0.14721805 0.09456722 0.12114879 0.12573175 0.075644866 0.15372898 0.12930003
00000000: 5d78 043e 8f3e 3c3e 6d81 173e d745 6b3e
00000010: c873 bf3d be7e 233e 6f6e 1d3e 410b 303e
00000020: a238 1f3e f47d 2b3e a60e 373e 5b66 423e
00000030: e79f 1f3e 64c1 213e 9a4d 1f3e dc4e 273e
00000040: 2c5d ab3d ea69 e33d 51df 163e 17be 183e
00000050: f2fc 1f3e da9f 473e d33f 4a3e 3146 493e
00000060: cf3c 303e 54c0 163e 75ac c13d db1c f83d
00000070: d3bf 003e b2eb 9a3d 216b 1d3e 3a67 043e

fc4.weight f4 [16, 32]
0.09846973 -0.0025858555 0.062870644 0.046108775 -0.05644066 -0.13279559 0.18160355 -0.12679526
-0.03388142 -0.11800254 0.0045746746 -0.008758651 -0.003931247 0.19298886 0.06925218 -0.08818906
-0.054935478 0.01523378 -0.100427665 0.06547324 -0.100444 0.14943242 0.087154835 -0.07726613
-0.13831383 -0.10612167 0.12507181 0.14045708 0.18638033 0.08299913 0.11875283 -0.10158385
0.018716212 -0.05587046 0.18257476 0.17112242 0.044605568 -0.08501425 0.053432044 -0.016130216
0.025065774 -0.067972444 -0.14401399 0.14855723 -0.16070955 -0.05596291 0.05785343 -0.03591732
-0.0106928935 0.045858447 0.20277603 0.008529678 0.1272872 -0.010885218 -0.021143049 0.04527089
0.011492754 0.011914266 -0.08128128 0.021614294 -0.016190665 -0.12643376 -0.036837753 0.16973764
-0.018964715 0.18440366 0.16020587 0.23202634 0.08209316 -0.006679024 -0.07395989 0.080062725
0.10039877 0.00015838008 -0.18374471 -0.051010035 0.011932519 0.05343258 -0.113952935 -0.0434985
0.13275322 -0.087966934 0.06197828 -0.13597155 0.15456006 0.12795867 -0.05848703 0.027173454
0.053175222 0.08461831 0.031347793 -0.035186335 -0.18003045 -0.20402102 -0.08968197 0.121131726
0.0878386 -0.0033812083 -0.0058173114 0.14711146 0.06922709 -0.04884522 -0.015575188 0.18715423
-0.042611267 0.024132669 -0.105458386 0.14674197 -0.010206142 0.09389377 0.12657392 -0.046251737
0.0013325693 -0.1217646 0.08216866 -0.10210785 -0.022116583 0.024798868 0.1304327 -0.016308296
0.06815909 0.10647506 -0.099310175 -0.10751168 -0.16791703 -0.09162572 -0.07150395 -0.15551192
0.05964137 0.061671708 0.167738 0.14939158 0.06358189 -0.052275527 0.0037183794 0.056364544
-0.07461945 0.117808364 -0.08773096 -0.015823208 -0.086114645 -0.035857994 0.089751855 -0.11830251
-0.065490186 0.021824764 0.17828058 0.09480431 0.060449757 0.03278546 -0.10926587 0.10845545
0.13068877 -0.0223573 0.037715275 0.10136756 -0.043427367 -0.1871606 0.024742818 0.1278537
-0.12222048 0.17881492 0.15953434 0.116412655 -0.062004432 0.06621351 0.10569953 0.12211902
0.07019134 -0.058509383 -0.10572164 0.13096273 -0.1572209 -0.060967024 0.061806247 -0.0067284857
-0.057436004 0.048250593 0.24279015 -0.050651077 -0.003806295 0.07209941 -0.006226278 0.13854516
0.0063028317 0.056991484 -0.028039798 0.027856715 -0.15577129 -0.11625526 0.015299244 0.17060843
-0.05820173 -0.18175007 -0.10813027 -0.19370468 -0.014345688 0.028410107 0.15296356 0.01941413
0.10563711 -0.14066796 -0.016480329 -0.056139033 0.08496769 -0.051158283 -0.09116149 -0.08169773
-0.20137501 0.13865912 -0.06705922 0.11239792 0.0056016156 0.18392535 0.017667474 -0.1048729
0.06623658 -0.06428261 0.17910996 0.070993535 0.22853863 -0.06354418 -0.024805244 -0.13171639
0.02745139 -0.055068053 -0.18147023 0.0736478 -0.18447344 -0.075995475 -0.07338373 0.017596735
0.14663924 0.004919051 0.14151616 0.08894466 -0.042045318 0.15017661 -0.10554563 0.016678546
-0.06063231 0.15347409 -0.12416572 -0.00082332897 -0.054590337 0.16545546 0.015163313 0.04417562
0.05929864 0.12189431 0.03826587 -0.052368157 0.25085083 0.22775552 -0.021037282 -0.14130566
00000000: 7faa c93d 7577 29bb 53c2 803d 8edc 3c3d
00000010: 522e 67bd 91fb 07be 48f6 393e 9ed6 01be
00000020: 3ec7 0abd 51ab f1bd 27e7 953b 7280 0fbc
00000030: b1d1 80bb df9e 453e 16d4 8d3d 779c b4bd
00000040: 0604 61bd 1b97 793c 05ad cdbd d616 863d
00000050: 95b5 cdbd d004 193e 3c7e b23d b43d 9ebd
00000060: 24a2 0dbe 5156 d9bd d312 003e fbd3 0f3e
00000070: 7cda 3e3e 73fb a93d af34 f33d 320b d0bd
00000080: be52 993c 6cd8 64bd e1f4 3a3e b73a 2f3e
00000090: 54b4 363d f31b aebd 8fdb 5a3d 8423 84bc
000000a0: bd56 cd3c 2335 8bbd 6778 13be 631f 183e
000000b0: 0b91 24be 5d39 65bd b8f7 6c3d 0a1e 13bd
000000c0: 3f31 2fbc 11d6 3b3d 85a4 4f3e 10c0 0b3c
000000d0: 9357 023e ea57 32bc 3034 adbc f86d 393d
000000e0: 1b4c 3c3c 0e34 433c cd76 a6bd 7610 b13c
000000f0: 49a2 84bc da77 01be 2fe3 16bd b4cf 2d3e
00000100: e45b 9bbc 50d4 3c3e 020d 243e 5098 6d3e
00000110: 7520 a83d b7db dabb 4878 97bd edf7 a33d
00000120: df9d cd3d d412 2639 9327 3cbe e6ef 50bd
00000130: 9d80 433c 1fdc 5a3d 2860 e9bd 7c2b 32bd
00000140: 76f0 073e 0228 b4bd f0dc 7d3d 203c 0bbe
00000150: fe44 1e3e 9907 033e 1990 6fbd dd9a de3c
00000160: 43ce 593d 5d4c ad3d 8b66 003d 8c1f 10bd
00000170: e759 38be e3ea 50be 2eab b7bd e913 f83d
00000180: b9e4 b33d 4397 5dbb 259f bebb 63a4 163e
00000190: efc6 8d3d ed11 48bd 132f 7fbc 5ca5 3f3e
000001a0: 2789 2ebd e0b1 c53c 91fa d7bd 8743 163e
000001b0: aa37 27bc 604b c03d 989c 013e 7672 3dbd
000001c0: 9ba9 ae3a b85f f9bd 0b48 a83d ec1d d1bd
000001d0: d62d b5bc ff26 cb3c 2690 053e fa98 85bc
000001e0: fe96 8b3d 990f da3d 2263 cbbd 152f dcbd
000001f0: 71f2 2bbe 44a6 bbbd aa70 92bd 843e 1fbe
00000200: 824a 743d 799b 7c3d 83c3 2b3e 1bfa 183e
00000210: 3937 823d dd1e 56bd 0eb0 733b 82de 663d
00000220: 15d2 98bd 8345 f13d 4aac b3bd ac9f 81bc
00000230: e05c b0bd d5df 12bd d2cf b73d 9648 f2bd
00000240: b81f 86bd d9c9 b23c 2f8f 363e c328 c23d
00000250: 2a9a 773d 0c4a 063d c9c6 dfbd e41d de3d
00000260: 47d3 053e a826 b7bc 557b 1a3d cc99 cf3d
00000270: e5e0 31bd 07a7 3fbe 73b1 ca3c 15ec 023e
00000280: bb4e fabd 421b 373e f85c 233e c269 ee3d
00000290: 5cf8 7dbd f39a 873d ff78 d83d 8919 fa3d
000002a0: 7ac0 8f3d 89a7 6fbd 9684 d8bd 181b 063e
000002b0: 84fe 20be 8fb8 79bd 8c28 7d3d a17a dcbb
000002c0: 0442 6bbd 6aa2 453d fb9d 783e 8177 4fbd
000002d0: 0973 79bb dba8 933d ce05 ccbb c8de 0d3e
000002e0: fc87 ce3b e76f 693d b8b3 e5bc c433 e43c
000002f0: 8282 1fbe 3d17 eebd aea9 7a3c fab3 2e3e
00000300: f064 6ebd b11c 3abe 6773 ddbd 855a 46be
00000310: 2d0a 6bbc 50bc e83c 7ba2 1c3e 620a 9f3c
00000320: 4558 d83d 430b 10be c101 87bc 0bf2 65bd
00000330: 8a03 ae3d 598b 51bd e0b2 babd 2451 a7bd
00000340: 4035 4ebe a8fc 0d3e 5856 89bd e130 e63d
00000350: c28d b73b ed56 3c3e 61bb 903c 9ac7 d6bd
00000360: 0ba7 873d 9aa6 83bd 9a68 373e 0f65 913d
00000370: 0806 6a3e 7323 82bd 5e34 cbbc a9e0 06be
00000380: bde1 e03c 0a8f 61bd 55d3 39be a8d4 963d
00000390: 9be6 3cbe 84a3 9bbd 364a 96bd 0727 903c
000003a0: 9928 163e fe2f a13b 9de9 103e 9e28 b63d
000003b0: b637 2cbd e6c7 193e 4f28 d8bd 72a1 883c
000003c0: 9659 78bd 5028 1d3e 994a febd acd4 57ba
000003d0: 1e9a 5fbd 286d 293e 8b6f 783c 7ff1 343d
000003e0: 21e3 723d b9a3 f93d acbc 1c3d fe7f 56bd
000003f0: 856f 803e be38 693e 6156 acbc 6eb2 10be

fc4.bias f4 [16]
-0.1297644 0.060485993 -0.035472307 0.06396099 0.19694252 0.07970724 0.0015396401 0.092283815
0.0027413731 0.102904536 0.074045524 -0.09138892 -0.055724394 0.15577227 -0.09466618 -0.0076341582
00000000: f5e0 04be 29c0 773d 694b 11bd fbfd 823d
00000010: 4dab 493e 8d3d a33d c0cd c93a 4cff bc3d
00000020: 9ca8 333b 9dbf d23d 2ea5 973d 1d2a bbbd
00000030: 433f 64bd c482 1f3e 58e0 c1bd f627 fabb

bn4.weight f4 [16]
1.2968124 1.1505815 1.1688669 1.1776812 1.1708678 1.179861 1.2601491 1.2316554
1.1372287 1.1275097 1.1231985 1.1509892 1.2623124 1.1713051 1.2303146 1.3482484
00000000: f3fd a53f 4146 933f 6e9d 953f 42be 963f
00000010: ffde 953f af05 973f 914c a13f e2a6 9d3f
00000020: b690 913f 3d52 903f f8c4 8f3f 9d53 933f
00000030: 7493 a13f 53ed 953f f37a 9d3f 6793 ac3f

bn4.bias f4 [16]
0.2798805 0.08299036 0.1418063 0.1289788 0.10880156 0.10318522 0.24734917 0.20457341
0.10509446 0.087933436 0.09048736 0.10577393 0.22175659 0.16113937 0.22454199 0.30137476
00000000: 7f4c 8f3e daf6 a93d ac35 113e 0513 043e
00000010: 5ad3 de3d c652 d33d 1a49 7d3e b17b 513e
00000020: c43b d73d 7216 b43d 7051 b93d 01a0 d83d
00000030: 2914 633e b801 253e 56ee 653e cb4d 9a3e

bn4.running_mean f4 [16]
-0.01150716 0.23113544 0.13975413 0.08388586 0.5103356 0.39283252 -0.15162009 0.37699762
-0.459638 -0.090072125 0.45687497 -0.07242963 0.12382463 0.0045801345 -0.1494585 -0.28564125
00000000: 8788 3cbc c5ae 6c3e b51b 0f3e 5acc ab3d
00000010: 5ba5 023f 5821 c93e 4c42 1bbe d505 c13e
00000020: ac55 ebbe bc77 b8bd 84eb e93e fc55 94bd
00000030: c597 fd3d f414 963b a60b 19be 923f 92be

bn4.running_var f4 [16]
0.17644177 0.18836805 0.42691365 0.1788448 0.16764472 0.14166869 0.44145674 0.42512676
0.16980271 0.39426047 0.2873122 0.3089697 0.17225519 0.22416985 0.17032363 0.22761501
00000000: 27ad 343e 8ee3 403e 6d94 da3e 1723 373e
00000010: 0fab 2b3e 9911 113e 9e06 e23e 37aa d93e
00000020: c3e0 2d3e 82dc c93e 961a 933e 4731 9e3e
00000030: aa63 303e c88c 653e 5169 2e3e e913 693e

fc5.weight f4 [1, 16]
0.39964592 -0.27103734 -0.1355393 -0.32598722 -0.36790076 -0.16853409 0.40196046 0.43936855
-0.29339966 -0.23126155 -0.27074426 -0.33241227 0.40561935 -0.41244408 0.34605348 0.24436286
00000000: 649e cc3e 68c5 8abe d0ca 0abe cce7 a6be
00000010: 7d5d bcbe 3394 2cbe c3cd cd3e eaf4 e03e
00000020: 7b38 96be d4cf 6cbe fe9e 8abe f131 aabe
00000030: 57ad cf3e df2b d3be ec2d b13e 423a 7a3e
